outputs/identity/model.pt (torch, 2899 bytes, 7 tensors)

embedding.weight f4 [27, 2]
000000 2f 17 0f 3f 6e 67 ff bf 3d 8a f5 3d 3f 95 0c 3d
       0.5589475 -1.9953439 0.119892575 0.03432202
000010 11 30 2c 3f e2 b2 b7 3f fe d7 08 40 ca 58 2b 3f
       0.67260844 1.4351466 2.138183 0.66932356
000020 53 af 98 bd 5f d3 59 3e a7 b7 00 bf d6 8d 92 bf
       -0.074553154 0.21272038 -0.5028023 -1.1449535
000030 64 ed a9 bf 85 6a 17 3f bd 08 8b 3f 85 a8 42 bf
       -1.3275571 0.5914691 1.0862042 -0.7603839
000040 92 8f 53 bf 80 f5 9e bf b6 18 7b 3c e6 b4 16 be
       -0.82640946 -1.2418671 0.015325716 -0.14717445
000050 34 7d 48 3f bf fb a5 3f ce 1f 10 bd e5 6c 47 3d
       0.78316045 1.2967452 -0.03518658 0.048687834
000060 be 1a 86 3e 4f de b5 3d a1 40 07 c0 34 b5 09 bf
       0.26192278 0.088802926 -2.1133196 -0.5379212
000070 39 ae 86 bf 96 6e aa bf 46 e3 20 be 2c 55 81 bd
       -1.0521919 -1.3314998 -0.15711698 -0.06315073
000080 0e 7d 5c 3f b3 f2 90 3f 4b a3 97 bf 0a f7 65 3f
       0.8612832 1.1324066 -1.1846708 0.89830077
000090 c9 77 ad 3f aa ca 3d bf de e4 3c bf bc ab a7 bf
       1.355218 -0.74137366 -0.73786724 -1.3099284
0000a0 11 67 98 3f da ec 02 bf b6 2b a8 3d 53 fb 38 3e
       1.1906453 -0.51142657 0.08211462 0.18064623
0000b0 77 6a a5 3f 7b 91 d0 be 99 ff 01 bf 50 32 07 40
       1.2923115 -0.40735993 -0.50780636 2.1124458
0000c0 33 b9 0f 3e 64 90 88 bd a8 8b 92 bf 41 6d 2d 3f
       0.14035492 -0.06668165 -1.144887 0.67744833
0000d0 64 6c a7 3f 33 d1 0c bf
       1.3079953 -0.5500671

rnn.weight_ih_l0 f4 [2, 2]
000000 33 a4 c9 bf 16 84 35 c0 08 2c 33 c0 51 f8 da 3f
       -1.5753235 -2.836187 -2.7995625 1.710703

rnn.weight_hh_l0 f4 [2, 2]
000000 34 ca 2e 39 8c ae 4b b9 c6 bf 41 b7 92 ef 8c b6
       0.0001666926 -0.00019424612 -1.1548347e-05 -4.200215e-06

rnn.bias_ih_l0 f4 [2]
000000 de 40 2e 3d 2c 19 0d bb
       0.04254233 -0.0021529896

rnn.bias_hh_l0 f4 [2]
000000 cd 40 2e 3d 59 1a 0d bb
       0.042542268 -0.0021530597

fc_out.weight f4 [27, 2]
000000 41 4b a9 41 83 e2 8c c1 d3 85 b8 c0 65 ba a8 c0
       21.161745 -17.610601 -5.766336 -5.2727532
000010 88 eb b5 c1 a6 00 21 41 8f e1 d5 c1 67 dc a4 c1
       -22.740005 10.062658 -26.735136 -20.607618
000020 86 6e 0b c1 6f 41 24 41 d3 ca b4 41 0f 71 21 c1
       -8.714483 10.265975 22.599035 -10.090102
000030 42 d8 3d 41 ba 25 a2 41 66 fb 33 41 3a 3e 93 c1
       11.865297 20.268421 11.248877 -18.405384
000040 3e 73 cb 41 9e 33 9f 40 91 09 26 41 99 39 c9 c0
       25.43127 4.975051 10.377336 -6.288281
000050 6d 22 b5 c1 79 ef c6 be 5a 0e 89 be 70 63 89 40
       -22.64181 -0.38854578 -0.26768762 4.2933884
000060 3c 99 5b c1 90 b2 23 c1 b9 9e c1 41 77 a3 b2 41
       -13.724911 -10.231094 24.202501 22.329817
000070 4a b2 c3 41 76 53 58 41 1b 3e 2d 41 55 55 ef 40
       24.462055 13.520376 10.827662 7.4791665
000080 b9 d0 bf c1 59 51 1a c1 5b 0c 43 c1 2f b8 aa 41
       -23.976915 -9.64486 -12.190516 21.339933
000090 8e 8f 92 3f 3e 43 9a c1 38 9a c1 41 e7 11 55 c0
       1.145006 -19.282833 24.200302 -3.3292177
0000a0 f4 8f 0a c1 42 6a 9d c1 d7 2b 48 c1 11 b7 c7 3f
       -8.660145 -19.676884 -12.510703 1.5602742
0000b0 23 be 98 c1 2b e7 a8 c1 e9 9c cc c1 2e aa b0 41
       -19.09284 -21.112875 -25.576616 22.083096
0000c0 31 9c a4 3f 14 89 11 c1 29 7a 06 be 75 62 98 41
       1.2860166 -9.095966 -0.13132538 19.048075
0000d0 9b de 2c c1 27 2e a5 c1
       -10.804347 -20.647535

fc_out.bias f4 [27]
000000 88 93 d5 c0 61 c2 0e 41 ec 7a 1e c0 19 47 53 c1
       -6.674259 8.922456 -2.4762526 -13.204858
000010 e7 6c cc 40 74 1b 4e c0 b2 8d b6 bf 09 66 8a bf
       6.3882937 -3.2204256 -1.4261992 -1.0812389
000020 a8 fd 60 c0 e0 32 ec 40 49 e0 4f 3e d2 15 1c 41
       -3.515482 7.3812103 0.20300402 9.755327
000030 6a 06 6f 40 25 17 46 c1 71 a6 ba c0 53 f6 e5 40
       3.7347665 -12.3806505 -5.8328176 7.186319
000040 d9 1f 48 c0 d5 60 5c c0 a6 a8 b2 3f f7 92 1d c0
       -3.1269438 -3.4434102 1.3957717 -2.462095
000050 46 2a d3 bf 99 6b e0 40 20 c5 f5 c0 62 4c 66 c1
       -1.6497276 7.0131345 -7.680313 -14.393648
000060 ea 48 e7 40 6f d8 0f 40 cd 02 59 c0
       7.2276506 2.247585 -3.390796
