outputs/pseudo_init_cv_red/model.pt (torch, 10003 bytes, 7 tensors)

embedding.weight f4 [27, 8]
0.34314868 1.5438789 1.087371 0.54277474 0.19166905 0.46709964 0.44908673 1.5139675
-0.49808413 -0.8690047 0.5865772 0.54762036 2.2250946 -0.16018991 1.2125578 0.38460398
0.83452934 -0.5065061 1.642741 0.9427565 0.3932964 -2.3607032 0.81158924 1.113844
-0.47003332 1.7146419 -1.4355173 -0.4730073 0.11164843 -2.1925278 1.3200245 0.48929304
-1.6118317 0.48334524 0.25565916 0.61587507 1.5195965 -0.28741214 0.3166912 0.9415367
-0.5440089 0.121459045 -0.15603182 0.38018602 -1.8456177 -0.43863246 0.87113005 1.4808565
-1.701783 -1.0682017 0.49079445 -0.68336433 0.37419552 -1.6901194 0.6904403 0.5055112
0.3983224 -0.17204915 0.047212593 1.6895796 -1.9376574 -0.38844058 1.505265 1.0798279
-0.11368759 -2.1418064 -0.37141287 1.6149998 -0.10954967 -0.076243825 -0.6038544 -1.6829367
0.9963312 -0.5923065 0.5699584 -0.3958508 -0.87153816 -0.09394322 0.59581834 2.1618285
-1.2043681 -0.50306505 -1.4038022 1.6686723 0.47532517 -0.74015516 1.4652305 0.4847105
0.62329257 -1.8758006 0.9318788 0.8560018 0.048332162 0.39210466 1.2140102 1.5076193
-0.8666381 -0.56421244 -0.7516829 1.9765086 1.5320286 0.2998882 0.5606718 1.0438985
-1.3269104 -1.7030295 -0.23760448 -0.8654588 -0.50270385 0.41932163 1.1520348 0.9346196
-0.4879452 0.25567907 -0.022546444 1.2361364 -0.4308282 -1.2170314 -0.4453981 2.492908
-0.22942771 -1.4775774 -0.86658686 0.22333732 0.3168248 0.78912795 2.4511497 0.016749578
2.0830154 1.1187199 0.21223329 -0.4799995 0.2789312 -0.5784192 1.9636053 -0.49770668
-0.7483617 0.1364434 -0.5660207 0.45990756 0.50731343 1.5103493 0.82620984 1.4337896
-0.32286784 -1.3259468 1.2628341 0.08277226 -0.4219916 -0.5980468 1.8553184 -0.067770325
-0.89251506 0.50661486 -0.16342564 0.93447876 0.3599369 0.53256917 2.1545625 -0.7215162
-0.85430217 -0.6656833 1.320435 -0.6929013 0.8686085 0.70747954 0.8153608 0.8441611
-2.1655514 0.22872874 0.67422724 0.25269973 -0.5783826 0.24623759 0.9631494 0.51431614
-0.64053214 -0.1857394 1.3255938 1.4679165 0.62236595 0.92048603 0.08602778 -0.0649438
1.8085551 0.999704 -2.4237635 1.2986466 0.21481301 -0.92733896 0.8721597 0.8066375
-1.1527644 -0.94566053 -0.17919055 0.4042935 1.4368804 -1.1012166 2.261557 -0.23752429
1.5667487 -0.1633166 -0.85721296 -0.19429848 2.4423041 -1.3937107 -0.08163795 2.120041
-0.25027844 0.67128444 1.347722 1.6029516 -1.5235068 -0.73278236 1.3603808 0.23889202
00000000: 2fb1 af3e d39d c53f f92e 8b3f 49f3 0a3f
00000010: e444 443e af27 ef3e b2ee e53e b0c9 c13f
00000020: e204 ffbe 1877 5ebf ec29 163f d930 0c3f
00000030: f367 0e40 d308 24be 1835 9b3f d0ea c43e
00000040: b7a3 553f 62aa 01bf 5645 d23f 7d58 713f
00000050: 255e c93e c315 17c0 50c4 4f3f 7192 8e3f
00000060: 35a8 f0be 6379 db3f 08bf b7bf 032e f2be
00000070: efa7 e43d 6052 0cc0 90f6 a83f 9e84 fa3e
00000080: 8050 cebf 0779 f73e c2e5 823e fda9 1d3f
00000090: 2382 c23f af27 93be 5925 a23e 8d08 713f
000000a0: 2b44 0bbf 85bf f83d cec6 1fbe bea7 c23e
000000b0: 333d ecbf 6f94 e0be 6102 5f3f b58c bd3f
000000c0: 06d4 d9bf d5ba 88bf 6949 fb3e f7f0 2ebf
000000d0: 8e96 bf3e d555 d8bf b2c0 303f 2f69 013f
000000e0: eaf0 cb3e a72d 30be fe61 413d 2544 d83f
000000f0: 2805 f8bf afe1 c6be 86ac c03f cd37 8a3f
00000100: 0ad5 e8bd 5b13 09c0 d429 bebe 50b8 ce3f
00000110: 945b e0bd b925 9cbd 3496 1abf 786a d7bf
00000120: 900f 7f3f 66a1 17bf cbe8 113f f5ac cabe
00000130: 201d 5fbf 4e65 c0bd 8d87 183f 665b 0a40
00000140: bc28 9abf dfc8 00bf caaf b3bf 0e97 d53f
00000150: d25d f33e cf7a 3dbf ac8c bb3f fa2b f83e
00000160: 1a90 1f3f 3c1a f0bf 9c8f 6e3f ef22 5b3f
00000170: f2f7 453d f1c1 c83e b064 9b3f abf9 c03f
00000180: ffdb 5dbf 3a70 10bf 4a6e 40bf 3cfe fc3f
00000190: 8319 c43f f28a 993e 3088 0f3f 779e 853f
000001a0: 33d8 a9bf dffc d9bf 974e 73be b58e 5dbf
000001b0: 33b1 00bf 53b1 d63e e075 933f 3b43 6f3f
000001c0: f4d3 f9be 5ee8 823e 52b3 b8bc b839 9e3f
000001d0: 8495 dcbe afc7 9bbf 380b e4be ce8b 1f40
000001e0: 19ef 6abe 4221 bdbf a3d8 5dbf 8ab2 643e
000001f0: dc36 a23e 4a04 4a3f a3df 1c40 6936 893c
00000200: 2050 0540 3732 8f3f af53 593e 7fc2 f5be
00000210: 12d0 8e3e 4813 14bf 6b57 fb3f 69d3 febe
00000220: a294 3fbf d2b7 0b3e bce6 10bf 0179 eb3e
00000230: 4bdf 013f 2053 c13f 7d82 533f 6b86 b73f
00000240: ef4e a5be a0b8 a9bf 8ca4 a13f 8184 a93d
00000250: 480f d8be 9819 19bf 137b ed3f 2bcb 8abd
00000260: de7b 64bf 83b1 013f 0d59 27be 003a 6f3f
00000270: a649 b83e 7456 083f 5ae4 0940 49b5 38bf
00000280: 8cb3 5abf 396a 2abf 0404 a93f fb61 31bf
00000290: 205d 5e3f 611d 353f 7cbb 503f f11a 583f
000002a0: 6598 0ac0 de37 6a3e 289a 2c3f dc61 813e
000002b0: e210 14bf b525 7c3e f690 763f 39aa 033f
000002c0: eaf9 23bf 7832 3ebe 0fad a93f b0e4 bb3f
000002d0: 6053 1f3f f9a4 6b3f 552f b03d 4101 85bd
000002e0: bc7e e73f 9aec 7f3f f11e 1bc0 0d3a a63f
000002f0: f1f7 5b3e 1666 6dbf dc45 5f3f cc7f 4e3f
00000300: c98d 93bf cf16 72bf ba7d 37be 8fff ce3e
00000310: b2eb b73f aaf4 8cbf 5abd 1040 9139 73be
00000320: 398b c83f 773c 27be 4f72 5bbf 2ef6 46be
00000330: b64e 1c40 1d65 b2bf cc31 a7bd c0ae 0740
00000340: 7f24 80be 4cd9 2b3f 2882 ac3f 852d cd3f
00000350: 4502 c3bf a097 3bbf f520 ae3f 1ca0 743e

rnn.weight_ih_l0 f4 [32, 8]
-0.54078525 -1.0059782 0.572657 0.8162015 0.05902014 0.46035382 1.3414342 0.62473315
-0.6647404 -0.87289375 0.80702543 1.1641909 -0.18009573 -0.062179886 0.97636086 0.6671225
-0.7679822 -0.60478777 -0.22492048 0.985843 0.23819335 -0.51545227 0.58950186 0.88746464
-0.7137738 0.053464998 0.19131619 0.37466362 0.3789035 -0.3102004 1.4988742 1.11894
-1.843571 -0.69998205 1.5112001 -0.058074247 -0.018799262 -0.5545899 1.1439382 0.5853933
-0.0081943255 -0.48954785 -0.045726735 0.6896676 0.2058961 -0.529875 0.8821923 0.362168
-0.93156695 -0.27144265 0.41474575 0.33007324 0.5284638 -0.42014068 1.0671062 1.6391025
-0.60547465 0.628975 0.23017764 0.64248246 -0.22587724 0.049919177 1.9124694 0.865622
0.7658688 0.68584394 -1.2008874 -0.6825373 0.5535063 -0.502781 0.047148354 -0.05767903
0.8800942 0.85682684 -0.87262625 -0.63437647 0.48075625 -0.45345327 0.31412774 -0.22234929
0.3991233 0.40591896 -0.76048964 -0.73990107 0.36777726 -0.15402837 -0.5646852 -1.3408568
-0.40830868 0.039721303 -0.077332325 0.25470746 0.25036862 -0.31726038 1.079161 0.6796506
0.59456354 0.60149074 -0.34105718 -0.995354 0.6718423 -0.5940956 -0.9143831 -1.304711
0.48449728 0.2611242 0.85560775 -0.63307077 -1.1609296 1.7308134 0.09365898 -0.564287
0.03612113 1.7337663 -0.3416981 -0.6289096 -0.46661705 0.121126965 -0.24091595 -0.92032534
0.8288217 -0.18766713 0.7227875 -0.16048202 1.1759425 0.8136417 -1.7680198 0.39819968
0.5657868 0.48777762 -1.3586973 0.061021175 0.75420916 0.11464795 0.22963607 -0.8013239
1.6685629 0.095765896 0.3079642 0.27394125 -1.278981 -1.1365052 -0.15484256 0.1715302
1.5323814 -2.3344774 0.75470054 -2.6679437 1.2033298 -0.8155743 1.3773284 0.21013777
0.6781823 0.39972356 0.108402245 0.012814271 -1.1651931 0.05889632 -0.6992059 0.77522385
0.9396584 -1.5128077 -2.8723576 0.6525738 -1.0424374 0.7680912 -0.6394023 1.4832541
-0.60830194 -0.01797995 -1.2998465 0.43986118 2.4939036 -2.9752471 -0.6300504 0.8745578
1.642911 -1.2539974 0.22537802 2.7663817 0.5000329 -0.31324372 1.3074275 -2.0337946
1.8086494 0.6029322 1.1583365 0.22535415 2.2984123 1.091691 -1.7521812 1.8008811
0.64752984 1.6096481 -1.8052464 0.48124304 1.8764234 0.33197966 2.8533192 1.024688
1.181391 0.6175994 0.5087139 0.18754224 -1.211692 -1.8029894 1.5952754 2.3353903
0.0005828778 -0.4446499 -0.0042123655 0.8188725 0.3235237 -0.53156 1.0242854 0.40766528
-2.509568 -2.6470985 -0.16209036 -0.12214544 1.8810371 1.7581028 0.5989738 -1.0382046
-0.06214311 -0.38599285 0.030549113 0.9134659 0.27081838 -0.55476695 0.997701 0.45010078
0.046203684 -0.46210173 0.034248043 0.7559404 0.19468807 -0.536972 1.0273805 0.41463277
-0.79374397 -0.4026138 -0.037124928 0.9374349 0.41893443 -0.39139906 0.97106314 1.7638716
-0.12635516 -0.22725765 0.09759961 0.7399482 0.36974582 -0.40110853 1.1608255 0.7055739
00000000: e770 0abf e5c3 80bf a699 123f 95f2 503f
00000010: 1abf 713d 7fb3 eb3e 1eb4 ab3f 83ee 1f3f
00000020: 6d2c 2abf f775 5fbf 3899 4e3f 3504 953f
00000030: 046b 38be 56b0 7ebd c9f2 793f 8ac8 2a3f
00000040: 7b9a 44bf 5fd3 1abf 8e51 66be 3560 7c3f
00000050: f5e8 733e aef4 03bf 98e9 163f e230 633f
00000060: e1b9 36bf 1dfe 5a3d 64e8 433e e9d3 bf3e
00000070: a4ff c13e 96d2 9ebe 1cdb bf3f 6d39 8f3f
00000080: 22fa ebbf 0632 33bf 016f c13f 43df 6dbd
00000090: e900 9abc 9bf9 0dbf 916c 923f 56dc 153f
000000a0: 7e41 06bc 04a6 fabe f54b 3bbd 0e8e 303f
000000b0: 6dd6 523e e3a5 07bf 5bd7 613f 166e b93e
000000c0: 2c7b 6ebf 88fa 8abe 8e59 d43e 5cff a83e
000000d0: 6749 073f ae1c d7be f096 883f 1cce d13f
000000e0: 6300 1bbf 8104 213f b0b3 6b3e bb79 243f
000000f0: 5d4c 67be 0d78 4c3d cccb f43f 6799 5d3f
00000100: fa0f 443f 7893 2f3f aeb6 99bf c4ba 2ebf
00000110: 97b2 0d3f 41b6 00bf a21e 413d d940 6cbd
00000120: da4d 613f 0159 5b3f 6f64 5fbf 7f66 22bf
00000130: af25 f63e 072b e8be 5ad5 a03e 88af 63be
00000140: e459 cc3e 9cd4 cf3e 73af 42bf 286a 3dbf
00000150: 4d4d bc3e 9db9 1dbe 368f 10bf 32a1 abbf
00000160: d60d d1be ceb2 223d 6960 9ebd 0469 823e
00000170: 5130 803e f46f a2be f321 8a3f 95fd 2d3f
00000180: 5135 183f 4cfb 193f 0c9f aebe 85cf 7ebf
00000190: dbfd 2b3f a616 18bf 0315 6abf c500 a7bf
000001a0: 0710 f83e 12b2 853e 1c09 5b3f ed10 22bf
000001b0: 5799 94bf 4b8b dd3f 48d0 bf3d 1d75 10bf
000001c0: c0f3 133d 0eec dd3f 0ef3 aebe 3800 21bf
000001d0: 6ee8 eebe 6a11 f83d acb2 76be 719a 6bbf
000001e0: a92d 543f d02b 40be 9a08 393f 6655 24be
000001f0: 4985 963f d34a 503f 794e e2bf d4e0 cb3e
00000200: 67d7 103f fdbd f93e cbe9 adbf 57f1 793d
00000210: da13 413f 8bcc ea3d b825 6b3e 9023 4dbf
00000220: 7893 d53f e920 c43d 7cad 9d3e 0742 8c3e
00000230: a6b5 a3bf 0179 91bf 0c8f 1ebe 9da5 2f3e
00000240: 1325 c43f 1468 15c0 0e34 413f 97bf 2ac0
00000250: b606 9a3f 7ac9 50bf 4c4c b03f 5b2e 573e
00000260: 5b9d 2d3f 91a8 cc3e ff01 de3d f3f2 513c
00000270: 0c25 95bf 453d 713d 28ff 32bf 1275 463f
00000280: 748d 703f afa3 c1bf b5d4 37c0 140f 273f
00000290: 976e 85bf a0a1 443f deaf 23bf 45db bd3f
000002a0: adb9 1bbf b04a 93bc 5f61 a6bf 7c35 e13e
000002b0: 1e9c 1f40 736a 3ec0 fc4a 21bf 05e3 5f3f
000002c0: e84a d23f fd82 a0bf 7fc9 663e 660c 3140
000002d0: 2802 003f 7b61 a0be c959 a73f b129 02c0
000002e0: d381 e73f c459 1a3f 5f44 943f 3dc3 663e
000002f0: 3019 1340 88bc 8b3f 7947 e0bf 4683 e63f
00000300: 84c4 253f f308 ce3f 5012 e7bf 7d65 f63e
00000310: a42e f03f 3df9 a93e c89c 3640 fa28 833f
00000320: d237 973f ff1a 1e3f 133b 023f 130b 403e
00000330: b918 9bbf 5bc8 e6bf fc31 cc3f 0977 1540
00000340: 44cc 183a 27a9 e3be e207 8abb a1a1 513f
00000350: e6a4 a53e 5114 08bf c91b 833f 81b9 d03e
00000360: c39c 20c0 106a 29c0 04fb 25be 6327 fabd
00000370: d3c5 f03f 8309 e13f 5956 193f e3e3 84bf
00000380: c689 7ebd dba0 c5be 2242 fa3c e7d8 693f
00000390: b5a8 8a3e 3505 0ebf 5569 7f3f 9c73 e63e
000003a0: 1340 3d3d 9998 ecbe ad47 0c3d 4f85 413f
000003b0: 4f5c 473e ff76 09bf 3481 833f bf4a d43e
000003c0: ce32 4bbf 6523 cebe 4f10 18bd bcfb 6f3f
000003d0: 937e d63e 7565 c8be 9897 783f 8bc6 e13f
000003e0: 3f63 01be 3bb6 68be 4ee2 c73d 3f6d 3d3f
000003f0: 534f bd3e 195e cdbe ee95 943f 7ea0 343f

rnn.weight_hh_l0 f4 [32, 8]
3.4791908 0.6874182 -0.83305883 -0.5969496 0.3214804 2.2875495 0.13421613 0.71489257
1.1139345 3.196141 0.27685574 3.1990235 -0.13307527 -0.07710101 -0.33234215 0.27111444
0.7210212 0.634813 0.61293703 -0.81680596 -0.86862063 -0.53833294 -0.00867705 0.77737695
1.0609428 0.9762247 1.2874244 1.9516244 -1.2147057 0.43867293 0.7795008 0.48265436
0.6926186 0.844928 -1.0660273 0.2829519 0.05887013 0.08437431 -0.60990286 0.5901828
0.09785281 0.38442278 -0.0704187 -0.4935555 -0.011637837 0.0685891 0.019662922 0.07007588
0.015945204 2.1223707 1.6183103 0.16836353 -0.38347927 -0.10416788 0.36406416 0.58051765
1.7468144 0.54421204 0.4237515 -0.32728347 -0.53563654 -0.061402023 0.5383492 0.25379792
2.653411 -0.44712847 -0.044244535 -0.6228093 0.10688236 -0.95180786 0.37268367 0.14412387
0.13327861 2.9955597 -0.018395688 -0.5255616 0.34505635 -0.115431145 -0.23745522 0.01880113
-1.4526409 -1.9912002 0.13759495 0.104412176 0.32450283 0.12406533 0.9974076 -0.46512955
-0.601935 2.7917457 -0.2587146 0.9044564 0.09212274 0.35237062 0.23649777 0.28835154
-2.2745028 -2.0610595 -0.50491744 0.02322485 -0.41573054 0.34446442 0.96023226 -0.023318717
-0.0050362716 -0.17349638 -0.048330132 -0.219451 -0.016007327 -2.5588896 -0.26583457 -0.01085159
-1.2804714 -1.046789 -0.7784295 1.0196998 0.39349857 -0.6125638 0.0639352 1.5446948
-0.0968193 -1.6756015 -0.14757976 1.2045147 0.37923738 0.35237497 0.085607514 1.8679546
-0.60866016 2.1410332 -0.107352346 -3.7648008 -0.15943964 -0.3166647 -0.31628007 0.28980565
1.631593 -0.83206606 -0.6427834 -3.309055 -0.49911973 -1.0502869 -0.27000067 -0.22806364
-1.0372798 -1.3121128 0.490834 -0.052792463 0.9999655 0.32659352 0.16979952 0.9967037
0.4872795 -1.0216892 0.17356525 0.86671853 -0.44372895 0.3569913 0.23985815 -0.45402572
-0.80521625 -1.0199637 0.040671915 -0.38185206 0.14794394 0.24465483 -0.7689112 0.43633342
-1.4081987 -0.8850699 0.0044824355 0.27022177 0.14178942 0.11309046 2.2036927 -0.2622592
-1.2034874 -0.58877856 -0.50943506 -0.35878894 0.7027639 -0.12392553 -0.81560266 0.23306978
1.3815067 0.84840494 0.00845355 0.18901475 -0.14261043 -0.4071462 -0.22404014 -1.5119715
-0.9560949 -2.4485002 0.3137562 2.702387 0.101087295 0.40331247 -0.008918866 -0.244654
-0.80799025 -2.1254892 0.4505478 1.8338376 0.20463231 0.45514324 0.03602818 -0.17602776
0.16915888 0.25401172 -0.09317524 -0.6493434 -0.09980803 -0.23759608 0.049225606 0.020186814
-0.30455476 0.566948 0.2779669 -0.07185178 0.5038099 -0.20882867 0.31902274 0.13565919
0.20652907 0.27711844 -0.095980085 -0.61812365 -0.031719 -0.04931095 0.08731389 0.08666388
0.139941 0.42944324 -0.10612298 -0.58501 -0.05784298 -0.13021965 -0.05192041 0.11092364
1.6961744 -0.6196443 -0.89347625 -0.25472456 0.5933379 -0.2502785 -1.3360696 0.36461928
0.20002921 0.09763232 -0.10219409 -0.5827087 -0.022213154 -0.10497992 0.1439025 0.10319091
00000000: 10ab 5e40 a4fa 2f3f 5843 55bf b0d1 18bf
00000010: 1499 a43e 3667 1240 f46f 093e 3303 373f
00000020: 6895 8e3f 938d 4c40 09c0 8d3e cdbc 4c40
00000030: e244 08be 22e7 9dbd c028 aabe 83cf 8a3e
00000040: d894 383f 1b83 223f 71e9 1c3f 321a 51bf
00000050: ec5d 5ebf 30d0 09bf 2f2a 0ebc 2d02 473f
00000060: f9cc 873f dde9 793f 53ca a43f d4ce f93f
00000070: 7a7b 9bbf bd99 e03e 5d8d 473f 791e f73e
00000080: 744f 313f 344d 583f 9573 88bf 12df 903e
00000090: ce21 713d 70cc ac3d 9822 1cbf 3816 173f
000000a0: 0e67 c83d 10d3 c43e ae37 90bd 4eb3 fcbe
000000b0: a0ac 3ebc 7178 8c3d 2314 a13c f183 8f3d
000000c0: 849f 823c ecd4 0740 cb24 cf3f 7d67 2c3e
000000d0: 6557 c4be f855 d5bd 9e66 ba3e ce9c 143f
000000e0: 9d97 df3f 7b51 0b3f f5f5 d83e b391 a7be
000000f0: 7a1f 09bf b080 7bbd 41d1 093f cdf1 813e
00000100: 7cd1 2940 06ee e4be c239 35bd 6e70 1fbf
00000110: 24e5 da3d aea9 73bf 65d0 be3e 3595 133e
00000120: 307a 083e 40b7 3f40 8eb2 96bc 348b 06bf
00000130: 3aab b03e 2a67 ecbd 7627 73be d404 9a3c
00000140: 23f0 b9bf a6df febf b1e5 0c3e 0dd6 d53d
00000150: 3c25 a63e f715 fe3d 1b56 7f3f 7625 eebe
00000160: 6a18 1abf f6ab 3240 3d76 84be 748a 673f
00000170: d9aa bc3d ec69 b43e 792c 723e d0a2 933e
00000180: 7491 11c0 66e8 03c0 4542 01bf 0a42 be3c
00000190: a2da d4be a45d b03e c8d1 753f e506 bfbc
000001a0: 4f07 a5bb 09a9 31be d1f5 45bd c3b7 60be
000001b0: cc21 83bc d9c4 23c0 781b 88be deca 31bc
000001c0: 7de6 a3bf 2ffd 85bf 2847 47bf 8685 823f
000001d0: a578 c93e fbd0 1cbf 75f0 823d 8fb8 c53f
000001e0: 3249 c6bd 1c7a d6bf 261f 17be 8a2d 9a3f
000001f0: 672b c23e 7e6a b43e fe52 af3d 2319 ef3f
00000200: 27d1 1bbf b006 0940 8cdb dbbd 7ff2 70c0
00000210: 2544 23be e021 a2be 76ef a1be 6861 943e
00000220: 0ad8 d03f 4802 55bf 748d 24bf 8fc7 53c0
00000230: 9f8c ffbe cd6f 86bf 873d 8abe 8489 69be
00000240: 96c5 84bf 50f3 a7bf 984e fb3e e93c 58bd
00000250: bdfd 7f3f 4437 a73e eddf 2d3e f927 7f3f
00000260: b37c f93e b6c6 82bf 17bb 313e 44e1 5d3f
00000270: 7130 e3be 90c7 b63e 609d 753e 0f76 e8be
00000280: a722 4ebf 2c8e 82bf 9897 263d 1d82 c3be
00000290: 9e7e 173e cc86 7a3e 5dd7 44bf 1867 df3e
000002a0: db3f b4bf f193 62bf 65e1 923b 825a 8a3e
000002b0: 3f31 113e f99b e73d 4d09 0d40 d646 86be
000002c0: e00b 9abf 31ba 16bf 566a 02bf 2fb3 b7be
000002d0: 56e8 333f abcc fdbd 56cb 50bf d8a9 6e3e
000002e0: 36d5 b03f 1131 593f c280 0a3c 158d 413e
000002f0: 7808 12be 7775 d0be c76a 65be 4888 c1bf
00000300: a3c2 74bf 3ab4 1cc0 a7a4 a03e e9f3 2c40
00000310: db06 cf3d f97e ce3e 6f20 12bc 9486 7abe
00000320: 73d8 4ebf 0408 08c0 34ae e63e 31bb ea3f
00000330: 228b 513e 8908 e93e 4992 133d 9f40 34be
00000340: fc37 2d3e d30d 823e a9d2 bebd 5e3b 26bf
00000350: 2768 ccbd 634c 73be caa0 493d d15e a53c
00000360: 9aee 9bbe 8123 113f ad51 8e3e 0727 93bd
00000370: b0f9 003f 2fd7 55be f356 a33e 3eea 0a3e
00000380: 5b7c 533e 78e2 8d3e 3591 c4bd 5a3d 1ebf
00000390: c8eb 01bd 47fa 49bd a0d1 b23d d57c b13d
000003a0: b24c 0f3e fcdf db3e 0157 d9bd 37c3 15bf
000003b0: c3ec 6cbd 4d58 05be 7faa 54bd ef2b e33d
000003c0: 3e1c d93f 02a1 1ebf dcba 64bf 426b 82be
000003d0: fee4 173f 8124 80be 5404 abbf 61af ba3e
000003e0: 75d4 4c3e 74f3 c73d 234b d1bd 662c 15bf
000003f0: 5cf8 b5bc b6ff d6bd 2d5b 133e c155 d33d

rnn.bias_ih_l0 f4 [32]
1.3328296 1.6973668 1.3489853 1.3073584 1.3383701 1.5670633 1.198351 1.1051035
0.24928965 0.7216205 -0.34142742 1.0718892 0.22482654 -0.90572095 -0.7118129 -0.3456509
0.39136216 0.59318817 0.020712115 -0.9380109 0.2302359 -0.5144744 -0.19356738 0.17509364
0.6650505 0.93609124 1.7958753 0.24902527 1.7859652 1.753655 1.3946295 1.6598898
00000000: 299a aa3f 5143 d93f 8dab ac3f 8557 a73f
00000010: b64f ab3f 8895 c83f 9163 993f 0874 8d3f
00000020: c945 7f3e 1fbc 383f 93cf aebe aa33 893f
00000030: ee38 663e 54dd 67bf 5f39 36bf 28f9 b0be
00000040: 9f60 c83e 2edb 173f 74ac a93c 7b21 70bf
00000050: f6c2 6b3e 98b4 03bf 8736 46be bf4b 333e
00000060: c040 2a3f ada3 6f3f 3edf e53f 7b00 7f3e
00000070: 829a e43f c477 e03f 3883 b23f 4577 d43f

rnn.bias_hh_l0 f4 [32]
1.3328296 1.6973666 1.3489852 1.3073585 1.33837 1.5670633 1.1983509 1.1051033
0.24928959 0.7216205 -0.34142745 1.0718893 0.22482662 -0.905721 -0.7118129 -0.3456508
0.3913626 0.59318835 0.02071202 -0.9380113 0.23023589 -0.5144747 -0.19356747 0.17509374
0.6650504 0.9360911 1.7958752 0.2490253 1.7859652 1.753655 1.3946296 1.6598897
00000000: 299a aa3f 4f43 d93f 8cab ac3f 8657 a73f
00000010: b54f ab3f 8895 c83f 9063 993f 0674 8d3f
00000020: c545 7f3e 1fbc 383f 94cf aebe ab33 893f
00000030: f338 663e 55dd 67bf 5f39 36bf 24f9 b0be
00000040: ae60 c83e 31db 173f 41ac a93c 8221 70bf
00000050: f5c2 6b3e 9db4 03bf 8d36 46be c64b 333e
00000060: be40 2a3f aba3 6f3f 3ddf e53f 7d00 7f3e
00000070: 829a e43f c477 e03f 3983 b23f 4477 d43f

fc_out.weight f4 [132, 8]
2.2227657 2.6093261 -3.477572 2.9814012 -3.3247736 -3.3502316 -3.9399147 3.2319171
-1.6391675 1.6062977 -0.13775982 0.53273785 1.1119672 1.3931781 2.5476477 -1.2964938
1.739568 -1.0762478 1.5523721 0.4754557 0.35496625 0.9893979 -0.9075714 -2.0884821
-0.3715183 -0.43871436 2.1252143 -0.62711465 -0.373394 -1.9644797 0.83735067 0.81214195
-1.9026319 1.567556 1.9790511 0.6223548 -1.7903842 -1.6264333 -0.0131470235 1.5306607
-1.9457135 1.765394 1.4070091 0.62399656 1.077251 0.82752246 -2.788765 -1.9363704
1.519244 -1.4202986 -2.2009041 0.64532095 -1.5934188 0.8254265 0.8493075 1.7860634
-1.6654186 1.9534879 -0.31690702 0.5680279 -0.18332846 -2.2340693 -0.20796609 1.6659803
2.1177173 -1.313816 -1.1747451 0.6842977 0.6804859 -1.5407901 0.7038782 1.8839003
1.5656524 -1.5483114 0.4536912 0.51941586 -2.101357 -1.8982216 -1.2923391 -1.2603923
1.534727 -2.116686 -2.5249033 0.9144583 1.2919772 1.1566367 -1.534613 1.6593382
1.6456363 -1.6332446 1.9942622 0.54059875 2.2138193 1.2626282 1.6963736 1.8591492
-1.901488 -1.7862763 1.5686096 0.55476415 2.533575 0.9867953 -2.0324655 -1.4221576
-0.5800328 -0.5253346 -2.1270063 1.8324119 2.3803337 1.1408478 0.5981554 -0.46005005
1.7707351 -1.6130298 -0.31625357 0.6808275 -2.0520797 -2.027535 0.85450804 1.762161
-0.48177782 -0.3977938 -0.23211727 -0.8245061 2.7119534 0.058519054 -0.077791035 0.80990314
1.5939803 -1.2602112 -2.1645744 0.44042403 -2.29976 0.6438107 -0.8432088 -1.3563906
-2.0644102 1.796322 -1.0858002 0.3717021 0.50994366 1.3461384 0.6490124 0.20142469
-0.3020401 -0.3394851 -0.60289806 1.9683536 2.2790504 -1.7377785 1.0006403 1.3083763
-2.2614298 -2.0074682 -2.2594223 0.5308937 -0.15478233 1.0229487 -2.4721527 -1.2520132
-0.6387128 -0.28454158 2.7118177 -3.7471776 2.5590365 -3.183639 -4.2037697 -2.858105
-0.53342164 -0.19372204 -2.27664 -1.9701256 -0.0039574737 1.0830389 0.18616602 -0.48118502
-0.9597185 -0.82497084 -0.64106023 0.59394574 -1.630551 1.4077568 1.7806528 1.7402781
4.6004853 3.7095902 2.2680314 2.4435444 -1.633956 -3.3242178 2.373032 1.4704337
1.9646418 -1.6627455 2.2645457 0.58744025 1.5509326 -2.0727105 1.454511 1.7486553
-1.7337728 1.838504 -0.22034809 0.5993303 -2.451749 -1.4431822 0.37597352 1.5473181
-1.7164485 1.8537898 0.83008325 0.2359582 -0.81521976 1.1005695 -1.7637933 0.7262361
0.4013838 1.315525 1.7181544 0.8270547 2.3601227 1.3529019 2.0740178 2.0803301
-0.23409548 1.9781144 -0.7695248 0.60419923 -1.63745 1.6091177 1.9396772 -1.3650047
-0.3899069 2.4129367 -2.7121654 2.038606 2.9628742 -3.722854 -4.585322 -2.7096345
1.4648768 -1.6301305 -2.0084193 0.53591686 -1.4620802 1.0950099 0.27220538 -0.44072655
-0.9709415 -0.6530792 -2.5055425 -0.28103632 3.2394085 1.0438107 -0.4000199 -1.9726037
00000000: cb41 0e40 33ff 2640 8a90 5ec0 47cf 3e40
00000010: 17c9 54c0 326a 56c0 9027 7cc0 bbd7 4e40
00000020: 3ed0 d1bf 2a9b cd3f e910 0dbe 8261 083f
00000030: f154 8e3f a953 b23f a90c 2340 82f3 a5bf
00000040: 2aaa de3f 7dc2 89bf 21b4 c63f ee6e f33e
00000050: 23be b53e 2e49 7d3f 9956 68bf b1a9 05c0
00000060: a637 bebe 2b9f e0be 8303 0840 968a 20bf
00000070: 802d bfbe 1274 fbbf 9d5c 563f 89e8 4f3f
00000080: 7189 f3bf ada5 c83f 8c51 fd3f a552 1f3f
00000090: 4f2b e5bf f72e d0bf 9d66 57bc b1ec c33f
000000a0: 240d f9bf 6ef8 e13f e018 b43f 3dbe 1f3f
000000b0: 5ce3 893f 83d8 533f 207b 32c0 fcda f7bf
000000c0: 9676 c23f 58cc b5bf 9ddb 0cc0 c133 253f
000000d0: 26f5 cbbf 274f 533f 376c 593f ba9d e43f
000000e0: 702c d5bf e40b fa3f a341 a2be 476a 113f
000000f0: 75ba 3bbe fefa 0ec0 10f5 54be d83e d53f
00000100: ae88 0740 1f2b a8bf 0c5e 96bf 222e 2f3f
00000110: 5334 2e3f 9c38 c5bf 5d31 343f a523 f13f
00000120: 4c67 c83f 112f c6bf 374a e83e 70f8 043f
00000130: a27c 06c0 edf8 f2bf 5e6b a5bf 8954 a1bf
00000140: ef71 c43f c977 07c0 0498 21c0 f019 6a3f
00000150: 825f a53f ac0c 943f 336e c4bf 3265 d43f
00000160: 36a4 d23f 290e d1bf fc43 ff3f ae64 0a3f
00000170: 37af 0d40 cd9d a13f c522 d93f 9af8 ed3f
00000180: f563 f3bf b4a4 e4bf 33c8 c83f 0605 0e3f
00000190: 1826 2240 9e9e 7c3f ea13 02c0 4309 b6bf
000001a0: 087d 14bf 547c 06bf df20 08c0 798c ea3f
000001b0: 6357 1840 4d07 923f b620 193f ae8b ebbe
000001c0: 73a7 e23f c377 cebf fdeb a1be b64a 2e3f
000001d0: 4655 03c0 22c3 01c0 0ac1 5a3f 7e8e e13f
000001e0: 95ab f6be a1ab cbbe 26b0 6dbe d512 53bf
000001f0: a590 2d40 adb1 6f3d e850 9fbd d055 4f3f
00000200: 8c07 cc3f 9a4e a1bf 6388 0ac0 427f e13e
00000210: 452f 13c0 c7d0 243f 88dc 57bf 359e adbf
00000220: 4c1f 04c0 e1ed e53f 80fb 8abf bd4f be3e
00000230: ab8b 023f 434e ac3f ad25 263f 4642 4e3e
00000240: 00a5 9abe fed0 adbe 8757 1abf 03f3 fb3f
00000250: f6db 1140 876f debf fb14 803f e078 a73f
00000260: 44bb 10c0 5c7a 00c0 609a 10c0 a6e8 073f
00000270: 427f 1ebe fcef 823f c037 1ec0 f841 a0bf
00000280: af82 23bf 6faf 91be 6c8e 2d40 c2d1 6fc0
00000290: 41c7 2340 bec0 4bc0 4885 86c0 31eb 36c0
000002a0: 528e 08bf 125f 46be 78b4 11c0 132d fcbf
000002b0: b2ad 81bb 05a1 8a3f 4ea2 3e3e e25d f6be
000002c0: 1db0 75bf 4a31 53bf 861c 24bf d40c 183f
000002d0: e5b5 d0bf 6031 b43f 6eec e33f 6fc1 de3f
000002e0: 2d37 9340 ed69 6d40 6d27 1140 0863 1c40
000002f0: 7825 d1bf fcbf 54c0 c2df 1740 2c37 bc3f
00000300: 6279 fb3f d8d4 d4bf 51ee 1040 7c62 163f
00000310: f684 c63f 4aa7 04c0 6b2d ba3f f0d3 df3f
00000320: 44ec ddbf 1954 eb3f eea2 61be b66d 193f
00000330: 75e9 1cc0 32ba b8bf 9a7f c03e 850e c63f
00000340: 96b4 dbbf fc48 ed3f 5680 543f 079f 713e
00000350: 3eb2 50bf 76df 8c3f fbc3 e1bf 9cea 393f
00000360: 2d82 cd3e 2063 a83f 7cec db3f dbb9 533f
00000370: 400c 1740 e42b ad3f b5bc 0440 2124 0540
00000380: bab6 6fbe da32 fd3f 94ff 44bf cdac 1a3f
00000390: f697 d1bf 92f7 cd3f 5847 f83f 79b8 aebf
000003a0: e1a1 c7be 8e6d 1a40 1e94 2dc0 8578 0240
000003b0: bb9f 3d40 3d43 6ec0 f5ba 92c0 a76a 2dc0
000003c0: 1581 bb3f 1ea8 d0bf f189 00c0 d931 093f
000003d0: 7225 bbbf 4929 8c3f 815e 8b3e e9a6 e1be
000003e0: 9f8f 78bf 3330 27bf cf5a 20c0 fee3 8fbe
000003f0: 7852 4f40 979b 853f 69cf ccbe 477e fcbf

fc_out.bias f4 [132]
-1.1776853 0.35747904 0.5483572 1.0363573 0.099525206 -0.10550868 0.009599841 0.74457574
0.69429106 0.5925958 0.21320578 -0.35511836 0.13458101 0.9468604 0.16266559 1.3277073
-0.14300099 0.74684006 1.1519749 0.31817985 -1.3212098 0.7489553 0.87880427 -1.6312219
-0.29258153 0.46097898 0.6282988 -0.160677 0.3569336 -1.1198506 0.47410557 0.3095075
0.79486454 0.09337439 0.56173724 1.0727508 0.12870605 -2.573927 1.0753802 0.8644359
0.9505119 0.3334983 0.45053244 1.053578 1.2318468 -1.3014293 -0.1461899 1.1164926
0.3561731 0.6298744 1.5309238 -0.030733243 0.7026172 0.3704659 0.486311 -0.24273255
-1.1955659 0.07610323 -0.09455162 1.3295295 -1.1582819 0.2735339 0.49823156 0.31237733
0.3460572 0.5573791 -1.3839153 -1.7434986 -1.5222505 1.0286217 0.7657809 0.48420963
0.7260903 0.3268727 -0.13292494 0.7066609 0.94657147 -1.9193673 0.7449727 -2.1678686
0.14844845 0.18533453 0.13414279 -2.5298536 -1.9738806 0.2805087 1.051249 -2.4901145
0.39604253 -0.058702078 0.068335325 0.67943686 1.1085252 0.49603954 0.31995314 0.5273707
-3.0994296 -0.26286536 -0.085628204 -1.6531652 0.43611816 0.1087908 1.258065 0.6325465
1.1238065 0.19513996 0.56060535 0.16514142 -1.6146271 1.1674603 0.8163938 0.44882056
-0.033255063 0.35363907 0.26238003 0.28639093 -0.02659533 0.12926437 -2.997612 -1.9836934
1.3429227 -2.8063872 0.87652004 -1.4994557 -2.488136 0.9864446 0.12177149 0.0136694275
-1.1839031 -2.5817142 -2.1354842 0.8457876
00000000: 64be 96bf 7e07 b73e 2361 0c3f 5ba7 843f
00000010: dfd3 cb3d ef14 d8bd a748 1d3c 849c 3e3f
00000020: 0fbd 313f 5cb4 173f 9e52 5a3e 13d2 b5be
00000030: 9bcf 093e 7165 723f cf91 263e 50f2 a93f
00000040: da6e 12be e930 3f3f ea73 933f 78e8 a23e
00000050: 671d a9bf 89bb 3f3f 51f9 603f e1cb d0bf
00000060: 3fcd 95be 7005 ec3e 31d8 203f 8388 24be
00000070: 00c0 b63e 4457 8fbf f7bd f23e c477 9e3e
00000080: 3e7c 4b3f 123b bf3d 03ce 0f3f e64f 893f
00000090: 85cb 033e 38bb 24c0 0fa6 893f ac4b 5d3f
000000a0: bf54 733f 4ac0 aa3e 30ac e63e a5db 863f
000000b0: 28ad 9d3f 3c95 a6bf ceb2 15be 3be9 8e3f
000000c0: 525c b63e 733f 213f 50f5 c33f 48c4 fbbc
000000d0: b9de 333f b5ad bd3e c1fd f83e e28e 78be
000000e0: 4e08 99bf 03dc 9b3d 48a4 c1bd 062e aa3f
000000f0: 9542 94bf a30c 8c3e 3518 ff3e ecef 9f3e
00000100: 692e b13e 66b0 0e3f 2324 b1bf f62a dfbf
00000110: 1bd9 c2bf e0a9 833f 380a 443f 53ea f73e
00000120: 0ee1 393f dc5b a73e 7a1d 08be bbe7 343f
00000130: 8252 723f d4ad f5bf 88b6 3e3f 5cbe 0ac0
00000140: df02 183e 56c8 3d3e ba5c 093e 1fe9 21c0
00000150: 1fa8 fcbf d69e 8f3e 548f 863f 095e 1fc0
00000160: 16c6 ca3e 9771 70bd 64f3 8b3d 93ef 2d3f
00000170: 27e4 8d3f e5f8 fd3e e6d0 a33e c401 073f
00000180: 0e5d 46c0 4a96 86be d75d afbd eb9a d3bf
00000190: e14a df3e b6cd de3d 4608 a13f 91ee 213f
000001a0: e4d8 8f3f c5d2 473e d583 0f3f d51a 293e
000001b0: 1aac cebf 576f 953f 2fff 503f cfcb e53e
000001c0: 7636 08bd 2e10 b53e ad56 863e d5a1 923e
000001d0: 73de d9bc e15d 043e e0d8 3fc0 aae9 fdbf
000001e0: e4e4 ab3f d99b 33c0 9e63 603f 2aee bfbf
000001f0: 9f3d 1fc0 a287 7c3f 5563 f93d bcf5 5f3c
00000200: 238a 97bf ce3a 25c0 c6ab 08c0 8985 583f
