outputs/red_init_cv_rev/model.pt (torch, 9043 bytes, 7 tensors)

embedding.weight f4 [132, 8]
00000000: 8b5f 25bf cf0f b43d ae61 023f 99d0 41bf
00000010: fd78 58be 4422 433d f3c6 1cbe 1a63 603f
00000020: 6ea0 b63e 6da1 e83f e85b 8abf 8b78 7fbe
00000030: bcc6 30bf 7c67 b9bf dad3 a43e d1be 3cbe
00000040: ca1a bfba 60aa 24bf cccf fb3b 1648 863e
00000050: c014 c0be 3dfb 0ebf 85cc 8c3e b798 12bf
00000060: 458a ce3d a7a2 58bf 92ab 13bd f8f1 663e
00000070: e0a3 debe 5845 15bf 6723 ac3e 6f07 dcbe
00000080: dcd8 c83e 68de 6c3f 61d4 67be d97d 4c3e
00000090: 44f3 bc3c 75c2 473e ac53 5f3e 022e 833e
000000a0: b2ca e1be 8327 f3be 708d 163e 9b9f 8ebd
000000b0: 4423 003f cd3d 17bf 2ca3 803d 997c fc3d
000000c0: 696c 133f e778 823f 3f67 97be b683 fc3d
000000d0: cfb9 753d 53a0 6b3e 01c6 973e 6d60 b03e
000000e0: 9d0a fb3d dfe7 71bf 1ec7 bebd d903 663e
000000f0: 2deb c7be bcf8 36bf 7d9d 923e 0635 e8be
00000100: 5fca c2bd f4e5 03c0 2779 d83e 6360 c73d
00000110: f084 83bf 2f6d be3e f8fe a8bf 344d 18bf
00000120: d9fc bfbe 13c0 11bf 860a 303e ac71 b8bd
00000130: 09a1 0e3f 5236 23bf 663b 673d 49b4 e4bd
00000140: 7bb1 c43c eb4c 4abf 68ee ac3d 7a04 a93e
00000150: 0828 cebe 385e 0ebf 93fc b03e a13b 18bf
00000160: 634e 3a3e a787 4bbd ef21 afbf d4a5 10be
00000170: adba fd3e 6600 123f 6ac1 6d3f 5388 82bf
00000180: df81 63be a5f9 e8be 22f1 e4be 53c5 063e
00000190: 528f b43e 52c3 f8bd 197a 30bf 0daf f8be
000001a0: d8a9 ce3c 51fd 1ebf 55a4 1c3d ae47 963e
000001b0: ffd3 a1be bf75 1fbf 7041 283e 6831 18bf
000001c0: 356f bcbe 94fc 1bbf 69b9 023e 7400 6dbe
000001d0: 60d5 193f a8b3 12bf 53c1 c83d b827 cb3d
000001e0: b9e7 bf3e ed3f f53d 199d 883e 36c8 c3bc
000001f0: fb02 2dbf 3a52 e93e 74b8 fa3e e584 a33c
00000200: a347 42bc 8195 33bf 46e8 f83d e46a 893e
00000210: fa2a c1be bfe2 15bf bf89 8e3e 8e2e febe
00000220: cd02 1f3f 4670 8d3f 1c6e e5be a4ad 703e
00000230: 46b4 87bc 0e29 603e 634a 8e3e 2920 d13e
00000240: 90df 023f d055 613f d124 dbbe cb1d 143e
00000250: 0326 c6bb 3648 5e3e c62e 963e 3fe7 b83e
00000260: ef47 6bbe 3926 c1be 5a6c 06bf 6ad7 263e
00000270: 8556 9d3e b0df 31bd 21dc 1ebf 00bc cbbe
00000280: 680a 37be 51fd 7a3f 1acc 253c b4f3 e8be
00000290: e6da c3bf b20b 55bf 93a8 863f 8827 a83d
000002a0: c2db cbbe 0fd9 18bf 4795 d43d bfe1 70be
000002b0: 00d1 0d3f 2956 2cbf fb3b ec3d 4be7 8a3e
000002c0: 5eb4 b9be fb29 14bf 8b6f 473e 4414 a6bd
000002d0: 6127 b23e aa29 02bf 0623 653e df01 403d
000002e0: a1f6 d53f df40 383f a690 b53c bf0b 173f
000002f0: 644e 53bf 33f6 a03d cc12 19bf 8bbc abbd
00000300: 1ed5 bdbe 544b 21bf 8914 513e df53 09be
00000310: 79f6 2a3f 7569 51bf 0235 b83d 065d 213e
00000320: 50d1 efbe 85bb 0fbf cb03 953e 6e30 c53d
00000330: 7706 233f a42f 32bf 668c 0d3e 9645 1fbe
00000340: 9a39 d1be d018 16bf 8632 6f3e 5a17 50bc
00000350: 10fe 103f 38c7 15bf 443b f53d f4f4 e2bd
00000360: 830a febd f891 37bf a34a 213e 8eb5 723e
00000370: 76b5 98be 3d82 1cbf df4c 883e 9a5b 21bf
00000380: aa40 a03e d0fb 9d3e b269 343e e0b0 433d
00000390: 5cdb 28bf f261 103f dbc6 003f 0a28 c3bd
000003a0: 2c4a b63e b262 a83e 36ca 843e a278 0cbd
000003b0: 9dca 1dbf 301f 133f ce0a e53e 950c 973c
000003c0: 684c 813e 0146 b33e 10e3 e43e b667 36be
000003d0: 21f1 1dbf 95e1 0e3f 2057 ef3e b162 10bc
000003e0: d7da c7be 15d7 0abf 2689 d33d 9d52 07be
000003f0: 9307 0c3f b6d3 17bf 7631 e03d 6ac7 4cbc
-0.6459891 0.08792078 0.509303 -0.7570892 -0.21139903 0.0476401 -0.15310268 0.87651217
0.35669273 1.8174263 -1.0809298 -0.24948327 -0.69053245 -1.4484706 0.3219288 -0.18432166
-0.0014580127 -0.6432247 0.0076846834 0.26226872 -0.3751583 -0.5585211 0.27499786 -0.57264274
0.100849666 -0.8462319 -0.036052294 0.22553241 -0.43484402 -0.58308935 0.3362076 -0.4297442
0.3922795 0.92526865 -0.2263961 0.19969882 0.023065217 0.19507773 0.21809262 0.2562104
-0.44099957 -0.47491083 0.14702392 -0.06964036 0.5005381 -0.59078676 0.062811226 0.123284526
0.57587296 1.0193146 -0.29570958 0.12329809 0.059991654 0.23010378 0.29643252 0.34448567
0.12257884 -0.9449443 -0.09315322 0.22462405 -0.39046612 -0.7147329 0.2863578 -0.45352954
-0.095112555 -2.0609102 0.42279932 0.09735181 -1.0274944 0.37192675 -1.320281 -0.594928
-0.37497595 -0.56933707 0.17191514 -0.09006056 0.5571447 -0.6375476 0.05645313 -0.11167199
0.02401041 -0.7902362 0.0844391 0.33011228 -0.40264916 -0.55612516 0.345677 -0.59465986
0.18193965 -0.049689915 -1.3682231 -0.14125758 0.49556485 0.5703186 0.9287325 -1.0197853
-0.2221751 -0.45502964 -0.4471522 0.1316121 0.35265595 -0.121466294 -0.68936306 -0.48571053
0.025227472 -0.6210528 0.038242657 0.29351562 -0.31607053 -0.6228904 0.16431212 -0.5945039
-0.36803594 -0.6093228 0.12766041 -0.23144704 0.6009121 -0.57305384 0.09802499 0.09919685
0.37481478 0.119750835 0.26682356 -0.023899179 -0.6758267 0.45570546 0.48968852 0.01996083
-0.0118579 -0.7015 0.12153678 0.26839364 -0.377281 -0.5854911 0.27839467 -0.49644893
0.6211365 1.1049888 -0.4481057 0.23503739 -0.016565453 0.21890661 0.27791128 0.4084485
0.5112238 0.88021564 -0.42801526 0.1446449 -0.006047012 0.21707234 0.2933256 0.36113927
-0.22976659 -0.37724474 -0.5250908 0.16293111 0.30730072 -0.043426216 -0.6205464 -0.3979187
-0.17875063 0.9804278 0.010119462 -0.4549843 -1.5301178 -0.8322097 1.0520195 0.08210665
-0.398161 -0.59706205 0.10380035 -0.23523615 0.55397034 -0.6731897 0.11534878 0.27129588
-0.36270422 -0.5787656 0.19476144 -0.08109334 0.3479567 -0.50844824 0.22376642 0.046876784
1.671589 0.71973985 0.0221637 0.590023 -0.8254149 0.07859459 -0.59794307 -0.08385571
-0.37076658 -0.63005567 0.2041799 -0.134109 0.6678234 -0.8180154 0.089944854 0.15758142
-0.4683938 -0.5614551 0.29104456 0.09628378 0.6368174 -0.69603944 0.13823089 -0.15553889
-0.4086426 -0.5863161 0.23359117 -0.01270088 0.5663767 -0.5850711 0.11974195 -0.11081877
-0.12404349 -0.71707106 0.15751128 0.2370207 -0.29825944 -0.6113623 0.26621148 -0.630304
0.31299335 0.3085618 0.17618445 0.047776103 -0.65959716 0.5639945 0.5030343 -0.09529121
0.35603464 0.328878 0.25935525 -0.034294732 -0.6163729 0.57469463 0.44734806 0.018438617
0.25253606 0.35014346 0.44704485 -0.17813 -0.6169606 0.5581296 0.4674616 -0.008812592
-0.3903415 -0.5423444 0.10328893 -0.13215108 0.5469906 -0.5930742 0.10946934 -0.012498716

rnn.weight_ih_l0 f4 [24, 8]
00000000: e835 82bf aa9c 42bf 583c 333f c490 b3be
00000010: 8032 2a3f a853 2c3f b695 e5be dd93 d13e
00000020: a511 27bf ca71 2e3e 1f02 943e 1ff3 7fbe
00000030: e94d d8be f34c 74bf 512f 333e 2775 04bf
00000040: f33e 4cbf 3bef a3be 1010 b33e f452 2fbd
00000050: d058 123f 25ea bbbe 42d9 0c3e 762d ea3e
00000060: 349f e2be d022 413e 1a15 c4bd a699 25bf
00000070: abea 8bbd 31e3 1dbd 7b22 093f c387 793e
00000080: b190 78be 66bc 32be 303e 8e3f 5c78 87bd
00000090: 5649 c63e 3ed3 853f 284e bdbe 3efd 0f3f
000000a0: 4712 9ebe 0721 7bbf 3e65 703f e42b 0cbf
000000b0: ec6c c1be ee1e a83e 34a0 233f 17c2 693f
000000c0: 43ff 8abf cb55 cabe 1b6c 00bc 580c b3bd
000000d0: 44e7 9b3f bacf d7be 640f 0f3f 575f 3f3d
000000e0: 9b64 b0be 4171 603f 0222 df3e 5e9c d8be
000000f0: 7306 5ebf c81f 25bf 8a83 60be 2ccb 723f
00000100: 8771 e2be 6bf4 233f 306c 053f f64f 4f3e
00000110: f15b 813e 6d38 673e e568 943e 2b2d c4be
00000120: dd57 50bf 3325 433f 553f 0b3f b3ab 923e
00000130: 3563 2f3e af94 9b3e 5a34 ca3e bc38 0fbe
00000140: 4761 45bf db3c 173f 751b be3f 2502 31bd
00000150: c71a f73d ef3b fa3e f192 db3e d1c4 0abf
00000160: 99e6 2abf 2000 b43e 076c 8b3f d268 263f
00000170: e51b 8c3e 00e3 1fbe 4960 973d 845f 55be
00000180: ce4f 65bf 1100 013e 89c8 093e a239 1c3e
00000190: a7cd 98be a21f 073f e01e 9dbe 4ede 5dbe
000001a0: f465 c9bd c1a9 e9bd b9c4 c73e c417 7f3d
000001b0: 1a21 963e a5f8 ca3d 857a 0f3f 12e6 2fbf
000001c0: 2ee8 14bf 212a 7e3e 26fe 40bc 8d26 4f3e
000001d0: f1b2 24bd dd40 053e 26c4 9e3d 9769 41be
000001e0: 1ee2 23bf e2c4 eebd 61f2 7a3e 0de1 353f
000001f0: cd59 8f3e aea0 4e3e 4b05 313f 026c e9be
00000200: 34e7 61bf 3281 96bf 1e5d 633f 679b 80be
00000210: f6af c13f 7cea 9a3f 55cb abbf 879c b13f
00000220: 7859 cd3f fd5c 9dbb 29be 053d e8e0 9e3f
00000230: 449d 713f 6069 bb3f 3628 953f 36fc ae3e
00000240: d880 3fbf 6ad0 ae3f 00f4 d93e aa27 c8be
00000250: 8d9e d73f b773 80bf 53d8 a03f 5681 d73f
00000260: 542c 9c3f daf5 9abf 5e05 913f ef2d b83f
00000270: d0f8 693f dafa acbf bd35 40bf 27ca 6d3d
00000280: e5a7 80bf 1e13 a7be e36e 91bf 93d8 6cbe
00000290: ea61 2f3f 1082 c5bf e4ce c23f 85df aabf
000002a0: 9d99 3ebf 4d36 88bf 8206 c93f 54e5 3abf
000002b0: 9bdd 85bf 1080 0d3e b947 a53f a3cb 083f
000002c0: 7d8d 923f e4cb 8d3f 1383 253f 13ad 3e3f
000002d0: b4e9 f4bf 2308 003f de37 46bf c97b f8be
000002e0: 3ad1 f6be 2627 acbf 6a62 33bf b211 313f
000002f0: 4590 b73f 12ed 953f 36d1 463f 68b3 89bf
-1.0172701 -0.760203 0.7001395 -0.35071385 0.66483307 0.6731515 -0.44840783 0.40933123
-0.652613 0.17035595 0.28907868 -0.24995087 -0.4224694 -0.95429915 0.17498519 -0.5174126
-0.7978355 -0.32018456 0.34973192 -0.04280372 0.5716677 -0.36702076 0.13754752 0.4573781
-0.44262087 0.18860936 -0.09574337 -0.64687574 -0.06831869 -0.038546745 0.5356824 0.24368195
-0.24273945 -0.17454681 1.1112728 -0.066147536 0.38727826 1.0455091 -0.3697369 0.5624579
-0.3087332 -0.9809727 0.93904483 -0.5475447 -0.37778413 0.32836097 0.63916326 0.9131178
-1.085915 -0.3951858 -0.007838274 -0.08742589 1.2179952 -0.4215067 0.5588286 0.046721783
-0.34451756 0.8767281 0.43580633 -0.423068 -0.8672859 -0.6450162 -0.21925178 0.94841266
-0.4422724 0.6404483 0.52118206 0.20245346 0.25265458 0.22580118 0.28986278 -0.3831571
-0.8138407 0.76228637 0.5439351 0.2864662 0.17127688 0.30386874 0.39493066 -0.13986486
-0.7710156 0.59077233 1.4852129 -0.043214936 0.12065654 0.4887385 0.42885545 -0.5420657
-0.66758114 0.35156345 1.0892342 0.65003693 0.27365032 -0.15613937 0.07391412 -0.20837218
-0.895749 0.12597682 0.13455404 0.1525636 -0.298444 0.5278264 -0.30687618 -0.21666834
-0.09833899 -0.11409331 0.39017275 0.062278524 0.2932213 0.099107064 0.56046325 -0.68710434
-0.5816678 0.24820758 -0.011779344 0.2022955 -0.040209714 0.13013025 0.07752256 -0.18887936
-0.640169 -0.11658646 0.24506523 0.71046525 0.279982 0.20178482 0.691487 -0.45590216
-0.8824341 -1.1758177 0.8881396 -0.25118563 1.5131824 1.2102809 -1.3421427 1.3875893
1.6042929 -0.004802345 0.032652054 1.2412386 0.94380593 1.4641533 1.1652896 0.34176797
-0.74805975 1.3657353 0.4256897 -0.3909276 1.6845261 -1.0035313 1.2566017 1.6836345
1.2201028 -1.2106278 1.1329763 1.4389018 0.9139528 -1.3514054 -0.75082 0.058054116
-1.0051237 -0.32631773 -1.1361965 -0.23129492 0.6850878 -1.5430317 1.5219388 -1.3349463
-0.74453145 -1.0641571 1.5705111 -0.73006177 -1.0458254 0.13818383 1.2912513 0.53435725
1.1449429 1.1077847 0.6465313 0.7448284 -1.913382 0.50012416 -0.77428997 -0.4853194
-0.48206502 -1.3449447 -0.7007204 0.69167626 1.4340903 1.1712973 0.7766298 -1.0757875

rnn.weight_hh_l0 f4 [24, 8]
00000000: c2dd bc3e 551c a0bd abe9 3fbe 8b0e f1bc
00000010: 56af f03c eb28 103e 0ae1 863e 615c c2bd
00000020: 2d8f fb3c 93c2 c6be ac5e 033f d692 9dbd
00000030: ca3e 95be 7cd0 e53e 123c b83e e924 8dbe
00000040: 9f2e 753e 73a4 72be 7067 babd 9512 90be
00000050: 7d29 55bc c443 e53e 4f1b 43bd dad3 5e3b
00000060: 40dd e53e a048 c0be 52b6 183f fb74 8ebe
00000070: e013 29bf 29ad 5f3e f2c3 ed3c 0a39 db3d
00000080: ee1b 17bb ad66 c6be 3a44 e93e eb2a 10be
00000090: 2709 943e fbf7 903e 8805 f53d 1766 a2be
000000a0: 7f44 e3bd 599c 01bd 77c6 773e 7d23 2f3d
000000b0: 5951 8cbe fb94 ad3d 00b1 d43d 52e1 de3d
000000c0: c14d 8a3e 9711 e6bd 254e a13e 9b2c 1abe
000000d0: 9ea0 49be 0cb8 fe3d f1e0 4c3d 8d53 023d
000000e0: d847 d0bd 6299 333e e7d0 72bd 4629 77be
000000f0: 7592 863d d076 fe3d 993f 4dbe ab4a 993e
00000100: 78e2 d2bd bf79 e3bd 84ce 273f 3b1d 0d3e
00000110: b5e0 813e 99d3 8e3e 401b 9b3f 9b7c 873f
00000120: 9ac0 d1bd 7b0b 653d 5042 1c3f 7e74 333d
00000130: c5f6 b23d cd24 8a3e fe84 443f 4e33 523f
00000140: fedb 8c3d 83aa bdbe b980 da3e 2d1d babd
00000150: 2555 943e 3ba2 80bb b648 5c3f eda0 693f
00000160: 742b f03b e477 42be 23bd 0f3f 4cdf a53d
00000170: dc6b 83bc 4f19 e73d 6c81 7c3f ea7e 503f
00000180: 70d4 833d aae9 56be fb73 1b3f f9bf 633c
00000190: 2b93 9a3e af62 443d ba7f ae3f 36bc 913f
000001a0: f389 083e 82ca b2bd 40dc bd3e 80ad 0fbe
000001b0: e4be 213e d889 863d 9f17 8a3f f86f 1f3f
000001c0: 0dbe 893d 27ce febe ff78 2b3f 62de a3bd
000001d0: 2d1f bf3d a2fa dfbd d6eb d83e fc74 853f
000001e0: a6e6 073e e8d9 20be 26b9 873e 4623 babd
000001f0: 2dbe 923e 0cde 843d 7a4c 403f bdda 4b3f
00000200: 7fd5 1bbe afb5 413e bee1 a73d 11a1 d6bb
00000210: 9066 44be 1fa3 633e eabd c2be 562a 9fbe
00000220: ca95 4dbe 1066 f6bc be71 23be a5dd 0e3e
00000230: df33 533e ab13 62be 13a3 cdbd 1fa1 de3d
00000240: d4e0 623e ca44 72be 7567 31bd 0989 263d
00000250: be02 b4bd 658a 2f3e 122d 41be 1044 b2bd
00000260: 677c 653c 268d bb3e ad8b bb3c 4018 793e
00000270: e5c1 b2bd 45a6 e9bd 602c 033f 95d5 873e
00000280: 961a 61be b8d9 a53e 6d33 95be 66d8 4c3e
00000290: 3b69 833c c754 c0bc e252 cb3d 34eb 2abe
000002a0: ec25 0fbd 071e 883e e9dd a63d c675 8c3e
000002b0: 3c93 a4bd 112e e53d 2ff1 7cbe e0ef e3be
000002c0: 4d11 90bd 06c0 813d 076a 0e3e 5f9a 0b3e
000002d0: 1515 0e3e 3b07 21be 8ed5 5e3e a5ce a43e
000002e0: 3d2e 0cbe afbb b8bd aead 413d b100 863e
000002f0: 04be d13d 79ec 383d 1cc4 d43e e276 363e
0.36887938 -0.07817904 -0.18741481 -0.02942588 0.029380482 0.14078109 0.26343566 -0.09490276
0.03070792 -0.38820323 0.5131633 -0.07694022 -0.29149467 0.44885623 0.3598333 -0.27567223
0.23943566 -0.23695545 -0.091017604 -0.28139177 -0.01301038 0.44778264 -0.047633465 0.0034000785
0.44895363 -0.37555408 0.596532 -0.27823624 -0.6604595 0.21843399 0.029024098 0.10704239
-0.002305742 -0.3875021 0.45559865 -0.14078872 0.28913233 0.28314194 0.119639456 -0.31718513
-0.11097049 -0.031643245 0.24196802 0.042758454 -0.27405813 0.084756814 0.103853226 0.1088282
0.27012447 -0.11233824 0.31504932 -0.15056078 -0.19690177 0.12437448 0.05001921 0.03181796
-0.10169953 0.1753898 -0.059281256 -0.24136838 0.06570903 0.124250054 -0.20043792 0.2993978
-0.10297102 -0.111072056 0.6554949 0.13780682 0.2536675 0.2789581 1.2117691 1.0584902
-0.10241814 0.05591915 0.61038685 0.043812267 0.08738474 0.26981202 0.7676543 0.82109535
0.06877898 -0.37044153 0.42676333 -0.09087596 0.2897121 -0.0039255894 0.8604845 0.9126118
0.0073293988 -0.18991047 0.56147975 0.08099231 -0.016042642 0.11284124 0.9863498 0.81443655
0.064370036 -0.20987573 0.6072385 0.01390075 0.30190405 0.047945675 1.3632729 1.1385562
0.13333873 -0.087300315 0.370821 -0.14031029 0.15795475 0.0656926 1.0788459 0.62280226
0.067257024 -0.49766657 0.669815 -0.080014005 0.09332118 -0.10936476 0.4236743 1.0426326
0.13271579 -0.15708125 0.26508445 -0.09088759 0.28660718 0.064876646 0.75116694 0.79630643
-0.15218161 0.18916963 0.08197354 -0.0065499623 -0.1917975 0.22230195 -0.38035518 -0.31086987
-0.20076671 -0.030077964 -0.15961358 0.13951738 0.20625256 -0.22077815 -0.100408696 0.10870575
0.22156078 -0.23659053 -0.043311555 0.04065803 -0.087895855 0.17142637 -0.18864849 -0.08704388
0.014006711 0.36631125 0.022893751 0.24325657 -0.08728389 -0.114086665 0.51239586 0.26530138
-0.21982798 0.3239267 -0.29140797 0.20004424 0.016041389 -0.023477925 0.09927918 -0.16691285
-0.034948274 0.2658541 0.08147795 0.27433604 -0.08035895 0.11190427 -0.24701379 -0.44518948
-0.0703455 0.06335454 0.13907634 0.13633107 0.1387523 -0.15725414 0.21761152 0.32188907
-0.13689514 -0.09020173 0.047284774 0.26172403 0.10241321 0.045147393 0.4155587 0.17818788

rnn.bias_ih_l0 f4 [24]
00000000: b18c 22bd 3ef3 a8be fbe0 87be 4c63 82be
00000010: 8691 14be 8f89 b4bd 4189 1f3c 81c5 dbbd
00000020: c812 c5bf 8088 c9bf 4fd4 bbbf 7556 e2bf
00000030: 5039 bcbf 1cde e9bf 8545 c4bf 0911 c3bf
00000040: 134c 2b3e ab38 59bd 001f a2bc 967f edbd
00000050: e8a3 61be 803a 3c3e 0fc6 cdbe 5480 f6bd
-0.039684955 -0.3299808 -0.26538834 -0.25466383 -0.14508638 -0.088153 0.009737314 -0.1073103
-1.5396357 -1.5744781 -1.4674166 -1.7682635 -1.470499 -1.8270907 -1.5333716 -1.5239574
0.16728239 -0.05303256 -0.019790173 -0.11596601 -0.22035182 0.18381691 -0.4019017 -0.120361954

rnn.bias_hh_l0 f4 [24]
00000000: b88c 22bd 3ef3 a8be fce0 87be 4b63 82be
00000010: 8791 14be 9289 b4bd 3d89 1f3c 85c5 dbbd
00000020: c712 c5bf 7e88 c9bf 4fd4 bbbf 7456 e2bf
00000030: 5039 bcbf 1bde e9bf 8545 c4bf 0911 c3bf
00000040: 8223 a03e 41dd 01be 2985 6c3d 9097 09be
00000050: 0ac9 b5be c12d b83e dc98 e5be 1c74 4ebe
-0.03968498 -0.3299808 -0.26538837 -0.2546638 -0.1450864 -0.08815302 0.00973731 -0.10731033
-1.5396355 -1.5744779 -1.4674166 -1.7682633 -1.470499 -1.8270906 -1.5333716 -1.5239574
0.3127709 -0.12682058 0.05774418 -0.13436723 -0.35504943 0.35972407 -0.44843185 -0.2016148

fc_out.weight f4 [27, 8]
00000000: d91d 183f bcc9 71bf c383 f23e 13a7 78bf
00000010: ffc9 69bf f56b a23f 54c9 ebbe f425 7fbf
00000020: 4804 3e3f 8e99 ec3f 71a7 9d3f 5a62 c5bf
00000030: 64ed ee3f f31c 8cbf d041 a53e d454 fd3f
00000040: 6f14 313f 4856 c03f 3d05 bc3d 5730 923f
00000050: 1a06 81bf f814 893f 1c88 f4be 3f7e 9a3f
00000060: dd9a a2bf adf8 24bf d7e2 bb3f d510 89bf
00000070: 3369 0540 d08f e6bf b31f e53f c8ea 3cbe
00000080: 8472 fabf d6aa a0bf 3b95 a9bf fbe9 b83f
00000090: 2e36 55bf c417 a03f 9477 cf3f 5e4c 1abf
000000a0: 051c c9bf 7182 0640 7549 d93f 40e1 8cbf
000000b0: 1605 0bbf 1499 c2bf 936f d03f 2011 7abe
000000c0: 6fc2 e1bf 5f31 60bf d187 1cc0 0cb4 b53f
000000d0: 5b93 c63f c3c5 9d3f c82d 62bd b0ba 823f
000000e0: bb17 533f 3c86 d2bf cdc2 f6bf 5a80 8c3f
000000f0: d8c2 02bf a059 913f 6d42 9c3f 06ae 713f
00000100: 06f5 e3bf e1af c43f ad56 95bf 2b45 f7bf
00000110: a494 e53f 7bf3 9ebf f8cd 1ebf 5906 b23f
00000120: f88c 1c3f 9b62 c03f d31b d0bf 1af3 983f
00000130: 99b7 4cbf 8918 07c0 703a a43f 4347 eb3f
00000140: d1a2 f1bf 9bae dc3f a0e3 8abf a86e ccbf
00000150: 2561 54bf 2834 0340 82c8 da3f 6065 e63c
00000160: 177e 5a3f ab27 863f 87ac 11c0 8941 98bf
00000170: 145a 94be 7be5 3a3f d3b5 04bf 1095 bd3f
00000180: 9dba e3bf b53a ef3f a304 bfbf bee9 b4bf
00000190: ffdb f8be c53d 3cbf 49eb ee3f 7b53 0540
000001a0: 0dbd 323f 0223 cdbe 5a87 003f 026b 5fbf
000001b0: b2f5 d2be a091 0cc0 f3e4 17bf 0954 b6bd
000001c0: 6111 aabf 22f7 593e a448 953f 8273 c03f
000001d0: 42e1 903f 1ee7 05c0 e9e0 05be 8972 89bf
000001e0: de86 883f 0438 80bf c078 7cbf 9dba ab3f
000001f0: 497d 05bf 8159 f9bf 8fc8 da3f 2d5c 6fbf
00000200: e051 dabf dce0 0c40 1c94 dd3f f74c 983f
00000210: 16c5 da3f c7a8 a6bf 20a8 383e bb36 d13f
00000220: 3a1a e4bf d328 ccbe f369 3c3f 7617 c2bf
00000230: 7c48 bf3f 6c67 e13f 8166 f03f dffe a1be
00000240: fd12 bfbf e63b afbf 113d debf b668 01c0
00000250: 2864 ad3f 1957 953f a999 fe3c b291 0640
00000260: a9f2 d73e 8fbf c23f 58c8 983f 8916 c03f
00000270: ec42 48bf 6810 23c0 7ddb 9f3d 7f5e 233f
00000280: c33c 183f e78c 8cbf d596 f4bf 54a1 6f3f
00000290: e468 4e3e cb04 f0bf 48b0 1bbf 762a f33f
000002a0: 70e0 cfbf 8f1f be3f c513 c4bf 6816 673f
000002b0: 0db1 95bf 03a9 9fbf b236 a63f d580 65bf
000002c0: 99d0 b5bf 7870 d13f b8f1 06c0 f530 da3f
000002d0: 2b86 d23f 25ae b2bf 058f 8abc 1192 a03f
000002e0: 9048 b9bf bb3e 92bf 7b4b c1bf 1ca1 69bf
000002f0: 0c96 8abd 04ed b2bf 5fa2 923f fa15 65bf
00000300: ea1c 2a3f df94 e73f 1919 adbf 58fa ac3f
00000310: 91ce 3dbf 1315 863f e88d 9f3f 37fe 39bf
00000320: cb66 5f3f 7bdf 32bf d58b d33e 936b 9d3f
00000330: a02f be3f 81b1 2a3f 525f 0dbf a779 353f
00000340: 712b e9bf 12dd 78bf d012 0b3f c8e9 443f
00000350: 1d56 963f 3bf1 613f 7eca c9be f285 45bf
0.59420544 -0.9444845 0.4736615 -0.97129935 -0.91323847 1.2689196 -0.4605204 -0.99667287
0.7422528 1.8484361 1.2316724 -1.542064 1.8666196 -1.0946335 0.32276773 1.9791512
0.69171804 1.5026331 0.091806866 1.1421002 -1.0079987 1.0709524 -0.47760093 1.2069777
-1.270351 -0.6444195 1.4678601 -1.0708262 2.0845459 -1.8012638 1.7900299 -0.18448937
-1.9566197 -1.2552135 -1.3248667 1.4446405 -0.83285797 1.2507253 1.6208367 -0.6027278
-1.5711676 2.1017115 1.6975542 -1.1006241 -0.54304636 -1.5202966 1.628405 -0.24420595
-1.7637461 -0.87575334 -2.4457896 1.4195571 1.5513719 1.2325977 -0.05521944 1.0213223
0.82458085 -1.6447215 -1.9278198 1.097667 -0.5107856 1.1355476 1.2207772 0.94406164
-1.780915 1.5366174 -1.1667076 -1.9317983 1.7935987 -1.2418054 -0.62033033 1.3908187
0.611526 1.5030092 -1.6258491 1.1949189 -0.7996765 -2.1108725 1.2830334 1.8381122
-1.8877813 1.7240785 -1.0850716 -1.597127 -0.8296073 2.0500584 1.709244 0.028124511
0.8534865 1.0480856 -2.2761552 -1.1895 -0.28974974 0.7300641 -0.5183994 1.4811115
-1.7791325 1.8689791 -1.492329 -1.4133832 -0.48605344 -0.7353175 1.8665553 2.0832202
0.6981972 -0.4006577 0.5020653 -0.87272656 -0.41203076 -2.1963882 -0.59333724 -0.08902747
-1.3286554 0.2128568 1.1662793 1.503525 1.1318743 -2.0922313 -0.13074078 -1.0738078
1.0666158 -1.0017095 -0.9862175 1.3416325 -0.52144295 -1.948044 1.7092456 -0.93500024
-1.7056236 2.2012243 1.7310824 1.1898488 1.7091396 -1.3020257 0.18032885 1.6344827
-1.7820504 -0.39874896 0.73599166 -1.516341 1.4943995 1.7609687 1.8781282 -0.31639764
-1.492767 -1.3690155 -1.7362386 -2.022016 1.354619 1.1667205 0.03107913 2.1026425
0.42177323 1.5214709 1.193614 1.5006877 -0.78227115 -2.5478764 0.07805536 0.63816065
0.59467715 -1.09805 -1.910853 0.9360554 0.201572 -1.8751463 -0.6081586 1.8997333
-1.6240368 1.4853381 -1.5318533 0.90268564 -1.1694657 -1.2473453 1.2985442 -0.8964971
-1.4204284 1.6362448 -2.1085033 1.704619 1.6447195 -1.3959395 -0.0169139 1.2544576
-1.4475269 -1.1425394 -1.510116 -0.9126146 -0.067669004 -1.3978581 1.1455802 -0.8948666
0.6645037 1.8092307 -1.3523284 1.3513899 -0.7414332 1.0475181 1.2465181 -0.72653526
0.87266225 -0.69872254 0.4131762 1.2298454 1.4858284 0.666771 -0.5522357 0.7088875
-1.8216382 -0.97212327 0.5432558 0.7691922 1.174503 0.88258713 -0.39412302 -0.7715751

fc_out.bias f4 [27]
00000000: 9ad9 663e 8e4b ecbe 6f6f 1b3e 046f 21bf
00000010: 5ae7 34bf 8241 fbbe 6c4e 27bf c9e8 c0be
00000020: 6451 dcbe 76cc 1cbf bb36 dbbe 1908 9cbd
00000030: 197b bbbe 30b2 7f3e 25ca 75be d4e5 0fbf
00000040: 0c17 3ebf 3d9b c8be 7137 31bf 3ad4 0ebf
00000050: 4204 c4be cf47 b0be d73a b0be e155 823e
00000060: a09d aabd 0704 c33d 7584 21be
0.22543946 -0.46151394 0.15179227 -0.6306002 -0.70665514 -0.49073416 -0.6535404 -0.376776
-0.43030846 -0.6124948 -0.42815194 -0.07618732 -0.36617354 0.24970317 -0.24002893 -0.56210065
-0.74253917 -0.39180937 -0.6922522 -0.5579258 -0.38284498 -0.34429786 -0.3441989 0.25456145
-0.08330846 0.095222525 -0.15773185
