outputs/init_cv_red_more_real/model.pt (torch, 33363 bytes, 7 tensors)

embedding.weight f4 [27, 32]
-0.29540843 0.21125501 -0.24158005 -0.42391592 -0.29949886 -0.29254705 -0.38391516 0.27959225
0.44170722 -0.07588442 0.2747201 -0.3615082 0.6327514 0.54806334 -0.3881255 0.33558273
0.5465667 -0.443393 -0.09412563 0.19914979 -0.34732416 0.3527466 0.7677937 -0.30336976
-0.5807131 0.46826634 0.07902458 0.78737056 0.029848613 0.29520336 0.28696308 0.27110633
0.23293124 -0.3319187 -0.31343803 0.417759 0.12415279 -0.05981593 -0.32930323 -0.786742
0.8233587 -0.18681371 -0.19491424 -0.11541185 0.71735734 0.68663895 0.021565814 -0.8775716
-0.4011958 -0.1963067 -0.08120697 -0.40151775 0.7576114 -0.18268737 0.37321353 -0.47415945
0.7958167 -0.104659446 0.05452426 0.44015235 0.6884291 0.4974281 -0.66806746 -0.94243425
0.5803495 -0.6543994 0.46498665 0.16251072 -0.572375 0.4465526 0.3719146 -0.84379315
-0.107344985 0.5035847 0.27008462 0.5879519 -0.5507943 -0.9640191 0.34110862 0.7683271
0.699872 0.7226651 -0.34291553 -0.7926474 -0.074643955 -0.4337671 0.2257309 -0.5401101
-0.8950774 -0.099235676 -0.5190757 -0.40601367 -0.4827024 0.3487134 -0.54715145 -0.09122663
-0.45864826 0.47985566 0.19495574 0.28935373 -0.426859 0.15248148 -0.23298347 0.58063245
0.016695825 0.63724196 0.3310973 -0.021341538 -0.50424397 -0.20995545 0.49158406 0.3418492
-0.6730089 0.6483351 -0.42102233 -0.020093817 -0.57161766 -0.19523983 -0.39371282 0.66420263
-0.021264981 -0.23594041 0.20179607 -0.32422906 -0.51788825 -0.68707097 0.022278862 -0.48801053
0.4170984 0.12321147 0.06955461 -0.37192553 -0.7043776 -0.10279656 -0.8590635 0.19734259
-0.17690784 -0.5095516 0.2798972 0.12352576 -0.80803883 0.36743572 0.7903175 -0.78663105
-0.54615927 0.6243145 -0.71956486 0.37880373 -0.47917506 -0.4034638 -0.25050145 -0.75265706
0.2737737 -0.52865845 0.7407305 0.09372465 -0.22520916 -0.42042884 0.26943418 -0.8180168
0.7115698 0.1920864 0.27508318 0.09440394 -0.5680029 -0.25183466 0.70044255 -0.58114153
0.4125545 -0.37966055 0.47172016 0.19811317 0.18360488 0.023019658 0.07222503 -0.09440097
-0.7447271 0.61441773 -0.18314718 0.64429843 0.28954148 -0.09188783 0.59996325 -0.61819273
0.032259084 0.10390734 0.12895027 0.506508 0.8178697 -0.67636687 -0.7533855 0.819494
-0.53413993 -0.56539446 0.43488756 -0.22236216 0.29738167 0.79112434 0.23753896 -0.7691083
-0.14749825 -0.5679535 -0.25746384 0.25660947 -0.67156637 0.5177259 0.45761043 0.80179495
0.1376677 -0.31810933 0.8522277 -0.39913875 0.04189165 0.78719205 -0.52125806 -0.10413542
0.06239966 -0.8789733 0.4940949 0.75446105 0.57721674 0.0447801 0.043515597 -0.8325084
0.765866 0.61602646 -0.34774143 0.7169345 -0.18801734 -0.5563461 0.3478344 0.6321669
0.05413856 -0.65285575 -0.1541527 0.15693156 -0.14341354 -0.32279575 -0.06789329 -0.18636
-0.8624834 -0.33452895 0.36311164 0.5128448 1.0577052 -0.23624149 0.31814295 0.8949999
0.78123194 -0.106799014 0.48405376 0.4109116 -0.35856566 -0.5166196 0.5698308 0.991339
00000000: c63f 97be 3c53 583e c360 77be 820b d9be
00000010: ea57 99be bac8 95be 8790 c4be b726 8f3e
00000020: 7327 e23e 4a69 9bbd 1da8 8c3e 9a17 b9be
00000030: fffb 213f e14d 0c3f 63b8 c6be 80d1 ab3e
00000040: cceb 0b3f 6804 e3be f0c4 c0bd eced 4b3e
00000050: 79d4 b1be 349b b43e 218e 443f 4853 9bbe
00000060: 9da9 14bf 9bc0 ef3e a4d7 a13d 1e91 493f
00000070: 1485 f43c e524 973e d3ec 923e 73ce 8a3e
00000080: 8785 6e3e 3ff1 a9be f37a a0be 82e4 d53e
00000090: d143 fe3d 8c01 75bd 6f9a a8be ec67 49bf
000000a0: a3c7 523f 184c 3fbe 9997 47be 0c5d ecbd
000000b0: bba4 373f 92c7 2f3f caaa b03c 88a8 60bf
000000c0: 8969 cdbe a004 49be d74f a6bd bc93 cdbe
000000d0: d2f2 413f 6612 3bbe d815 bf3e 07c5 f2be
000000e0: a5ba 4b3f b157 d6bd d554 5f3d a65b e13e
000000f0: e43c 303f e5ae fe3e 7806 2bbf 5f43 71bf
00000100: c991 143f b886 27bf bb12 ee3e 3669 263e
00000110: 2b87 12bf 8ba2 e43e 976b be3e d402 58bf
00000120: b0d7 dbbd edea 003f 8848 8a3e 0484 163f
00000130: db00 0dbf f5c9 76bf caa5 ae3e 16b1 443f
00000140: d02a 333f 9400 393f a092 afbe f1ea 4abf
00000150: eede 98bd b916 debe 0026 673e a844 0abf
00000160: cb23 65bf 133c cbbd 25e2 04bf 06e1 cfbe
00000170: c524 f7be 908a b23e 1e12 0cbf 07d5 babd
00000180: f2d3 eabe a4af f53e 7aa2 473e 2c26 943e
00000190: 438d dabe 1b24 1c3e 3893 6ebe 54a4 143f
000001a0: afc5 883c 4a22 233f 9685 a93e 73d4 aebc
000001b0: 2216 01bf 90fe 56be e8b0 fb3e dc06 af3e
000001c0: 504a 2cbf 4af9 253f 3d90 d7be ca9b a4bc
000001d0: 8955 12bf f3ec 47be ba94 c9be 2f09 2a3f
000001e0: e633 aebc 5d9a 71be a1a3 4e3e 5a01 a6be
000001f0: 5394 04bf e2e3 2fbf 2982 b63c 84dc f9be
00000200: ec8d d53e 4c56 fc3d a672 8e3d 066d bebe
00000210: 1752 34bf 0187 d2bd 96eb 5bbf 2d14 4a3e
00000220: 5427 35be f971 02bf b04e 8f3e 13fb fc3d
00000230: a2db 4ebf 8920 bc3e 3f52 4a3f a760 49bf
00000240: 18d1 0bbf 13d3 1f3f 6735 38bf 90f2 c13e
00000250: 6f56 f5be cf92 cebe ba41 80be 22ae 40bf
00000260: 112c 8c3e 2956 07bf 84a0 3d3f b6f2 bf3d
00000270: 3b9d 66be 7342 d7be 47f3 893e 8d69 51bf
00000280: 7029 363f 4cb2 443e b4d7 8c3e da56 c13d
00000290: a368 11bf 79f0 80be 3450 333f b1c5 14bf
000002a0: 583a d33e de62 c2be 4e85 f13e 2ede 4a3e
000002b0: eb02 3c3e b993 bc3c b7ea 933d 4c55 c1bd
000002c0: 6fa6 3ebf 7b4a 1d3f ef8a 3bbe bef0 243f
000002d0: c83e 943e b02f bcbd 3197 193f e141 1ebf
000002e0: 1a22 043d 5fcd d43d 8a0b 043e 82aa 013f
000002f0: e95f 513f 6126 2dbf dfdd 40bf 5cca 513f
00000300: 65bd 08bf b1bd 10bf 95a9 de3e e8b2 63be
00000310: 6942 983e 2087 4a3f 6a3d 733e 48e4 44bf
00000320: c809 17be 6765 11bf 4dd2 83be 5162 833e
00000330: c6eb 2bbf af89 043f ea4b ea3e 6f42 4d3f
00000340: c3f8 0c3e 3adf a2be 982b 5a3f ea5b ccbe
00000350: 9496 2b3d 6b85 493f 2b71 05bf f344 d5bd
00000360: c996 7f3d 6504 61bf 02fa fc3e 5c24 413f
00000370: 7ac4 133f 576b 373d 693d 323d 451f 55bf
00000380: cb0f 443f e9b3 1d3f 2a0b b2be 0589 373f
00000390: 9e87 40be b36c 0ebf 5a17 b23e b1d5 213f
000003a0: 65c0 5d3d 8e21 27bf 35da 1dbe abb2 203e
000003b0: 00db 12be 7c45 a5be a30b 8bbd 28d5 3ebe
000003c0: b6cb 5cbf 6147 abbe c5e9 b93e cc49 033f
000003d0: e262 873f 4ae9 71be a2e3 a23e b71e 653f
000003e0: d1fe 473f 71b9 dabd e5d5 f73e 0163 d23e
000003f0: eb95 b7be 2f41 04bf 6ee0 113f 65c8 7d3f

rnn.weight_ih_l0 f4 [32, 32]
0.34729984 -0.85371345 0.4565434 0.57388824 0.5089916 0.3297023 0.15397803 0.0032171118
-0.9216452 -0.27065432 0.2377496 0.74635243 -0.27272016 -0.5840282 -0.019501345 -0.6991787
0.08105609 0.5398591 -0.2863067 -0.26162797 -0.3584254 -0.29185444 -0.09282487 0.3386076
-0.2541709 -0.24836221 0.16334139 -0.3780377 -0.5289579 0.65550905 -0.14784254 0.14045706
0.10227257 -0.51527727 -0.2756616 -0.00018036505 0.48582453 0.63268685 0.6927309 -0.81944615
-0.81353635 0.23889586 -0.3420921 0.0961059 -0.0019675987 -0.59728444 -0.085575975 0.40701303
0.82968855 -0.25728163 0.15332493 0.39950016 0.09560035 0.7257234 -0.36614612 0.35890552
-0.7129079 0.370098 -0.79590267 0.30372047 0.2658868 0.36192182 0.18515535 0.20006983
0.025870278 0.58651245 -0.005067125 -0.29078946 0.37917677 -0.6369068 -0.1841792 0.74592644
0.021801183 0.48165074 0.38985625 -0.015552351 0.38464636 0.11388295 -0.52313787 0.02714097
0.4812292 0.3319266 -0.48996723 0.15217565 -0.6479449 -0.07747252 0.07822651 0.49048558
-0.3353255 0.5987945 0.1735442 0.057397556 -0.19579613 -0.19755384 0.20188032 0.23615308
0.83845544 -0.16894433 0.5501837 0.43850338 -0.00040037103 -0.5718151 -0.27501553 -0.46043366
0.13668649 -0.24821271 0.01570606 -0.045076273 -0.60885745 -0.55076075 0.21749671 -0.6508609
-0.95258415 -0.47267988 -0.5626992 -0.2057157 -0.0672128 -0.6090725 0.5091428 -0.11843982
0.3758591 0.15549569 0.059738312 0.12085992 0.29721102 -0.261265 0.072736755 -0.18987751
-0.3871347 -0.013077669 -0.23176771 -0.21422812 0.37332973 -0.1008971 -0.06483317 0.09937568
0.10511195 -0.20616621 0.13972159 0.2809382 0.027723152 0.19495955 -0.13342103 -0.13296346
0.38045016 -0.13112086 0.04219691 -0.02542733 -0.17365798 0.31742367 0.31800547 0.21514292
-0.3961646 0.39427173 0.17591722 0.19371346 -0.04917193 0.25116628 -0.007009256 0.07114292
0.8768732 0.031351816 0.52358586 0.37110406 0.16690856 -0.024692366 0.46944097 0.10048838
-0.091433935 0.5931264 0.2900373 0.24521749 0.014535712 0.06477212 0.33487466 0.2080868
-0.33029085 0.5941114 -0.41457495 -0.7686033 0.32477713 -0.15905723 -0.6833628 0.7337639
0.27673188 0.4299276 0.4655866 0.11202047 -0.513974 0.17212416 0.21028255 0.13686228
0.14321485 -0.6451577 -0.22372429 0.30997986 0.2981877 -0.06841496 0.21772549 -0.56325686
-0.27267706 -0.31163526 -0.24672072 0.5566233 0.35952666 -0.16010582 0.30233252 0.3118281
0.39838454 -0.07981773 -0.48820803 0.055777162 -0.43236378 0.19237486 -0.44328415 -0.5071841
-0.4783196 0.43292108 0.4879291 0.065270476 -0.36682376 0.45150164 -0.51975995 -0.29857376
0.46971625 0.20822987 -0.1253234 0.4888485 0.2745914 -0.49588633 0.5126478 -0.19468828
-0.025916906 0.4689836 -0.09413584 0.17056292 -0.025548698 -0.15902966 -0.5008996 0.30997324
-0.17630333 0.10220831 0.026309468 -0.07232688 -0.011041451 -0.16117078 0.0008228348 0.6886373
0.0099986205 -0.26109037 -0.40697303 -0.28344733 0.17938837 -0.21927956 -0.51523846 0.2859939
00000000: 49d1 b13e f78c 5abf 0ec0 e93e 57ea 123f
00000010: 464d 023f bdce a83e 6bac 1d3e 2ed6 523b
00000020: f1f0 6bbf 3493 8abe a274 733e f410 3f3f
00000030: faa1 8bbe df82 15bf 49c1 9fbc 60fd 32bf
00000040: bc00 a63d 3534 0a3f cb96 92be 1af4 85be
00000050: 8983 b7be f26d 95be f71a bebd fa5d ad3e
00000060: b022 82be aa52 7ebe f742 273e 288e c1be
00000070: c969 07bf 71cf 273f 0964 17be fad3 0f3e
00000080: 4874 d13d 36e9 03bf 8423 8dbe 6020 3db9
00000090: febd f83e c4f7 213f d056 313f 39c7 51bf
000000a0: eb43 50bf 1ea1 743e b226 afbe 2cd3 c43d
000000b0: d4f2 00bb a2e7 18bf 7542 afbd 0364 d03e
000000c0: 7866 543f 6bba 83be 3601 1d3e 498b cc3e
000000d0: 1eca c33d 02c9 393f 8177 bbbe 77c2 b73e
000000e0: 2281 36bf 7c7d bd3e 47c0 4bbf 4081 9b3e
000000f0: 5122 883e d14d b93e 5d99 3d3e 1bdf 4c3e
00000100: e8ed d33c ae25 163f 200a a6bb 5be2 94be
00000110: 7523 c23e 530c 23bf 7999 3cbe 09f5 3e3f
00000120: 6598 b23c ed9a f63e 3d9b c73e 4acf 7ebc
00000130: 5ef0 c43e 773b e93d 5dec 05bf bd56 de3c
00000140: ac63 f63e 49f2 a93e fcdc fabe efd3 1b3e
00000150: b8df 25bf eaa9 9ebd 3835 a03d ed20 fb3e
00000160: c9af abbe 994a 193f 92b5 313e b319 6b3d
00000170: c87e 48be 8e4b 4abe b7b9 4e3e 1dd2 713e
00000180: 04a5 563f beff 2cbe d7d8 0c3f 8483 e03e
00000190: e4e8 d1b9 7962 12bf d6ce 8cbe f6bd ebbe
000001a0: 8bf7 0b3e 792b 7ebe ffa9 803c e6a1 38bd
000001b0: 15de 1bbf a8fe 0cbf 75b7 5e3e d29e 26bf
000001c0: 8edc 73bf 1903 f2be 0e0d 10bf 23a7 52be
000001d0: dda6 89bd 2dec 1bbf 2f57 023f 9490 f2bd
000001e0: 9b70 c03e 433a 1f3e 29b0 743d 6885 f73d
000001f0: 0b2c 983e 87c4 85be 02f7 943d 406f 42be
00000200: 8536 c6be b843 56bc 8454 6dbe 9e5e 5bbe
00000210: 1325 bf3e 24a3 cebd 41c7 84bd 7a85 cb3d
00000220: ef44 d73d 3c1d 53be 2d13 0f3e 22d7 8f3e
00000230: aa1b e33c 7aa3 473e 869f 08be 9327 08be
00000240: 5dca c23e 8c44 06be abd6 2c3d fa4c d0bc
00000250: 66d3 31be 5b85 a23e 9dd1 a23e 6d4e 5c3e
00000260: 16d6 cabe fcdd c93e a523 343e d25c 463e
00000270: 8168 49bd de98 803e e7ad e5bb 61b3 913d
00000280: c37a 603f c36a 003d b909 063f 5a01 be3e
00000290: 14ea 2a3e a547 cabc 915a f03e dacc cd3d
000002a0: b741 bbbd 22d7 173f c57f 943e 4b1a 7b3e
000002b0: 3227 6e3c 3fa7 843d b174 ab3e b514 553e
000002c0: e21b a9be af17 183f 2b43 d4be 30c3 44bf
000002d0: 3049 a63e e6df 22be ddf0 2ebf f3d7 3b3f
000002e0: cdaf 8d3e 781f dc3e 5e61 ee3e fd6a e53d
000002f0: cd93 03bf 5141 303e 4f54 573e a025 0c3e
00000300: eaa6 123e 0e29 25bf fb17 65be aeb5 9e3e
00000310: 0fac 983e 241d 8cbd 6ef3 5e3e 9a31 10bf
00000320: 549c 8bbe a88e 9fbe 5ba4 7cbe dd7e 0e3f
00000330: e113 b83e c8f2 23be 54cb 9a3e efa7 9f3e
00000340: 0ff9 cb3e 7a77 a3bd 67f6 f9be 9876 643d
00000350: c95e ddbe eafd 443e 24f6 e2be d1d6 01bf
00000360: 4ee6 f4be d5a7 dd3e d8d1 f93e 87ac 853d
00000370: 53d0 bbbe 392b e73e fd0e 05bf a9de 98be
00000380: a67e f03e 363a 553e c754 00be 5a4a fa3e
00000390: 3e97 8c3e d0e4 fdbe e33c 033f 5d5c 47be
000003a0: b14f d4bc 9e1e f03e 4bca c0bd 0ca8 2e3e
000003b0: 814b d1bc acd8 22be f53a 00bf d0b4 9e3e
000003c0: dc88 34be 9752 d13d f486 d73c 1e20 94bd
000003d0: 34e7 34bc f409 25be 82b3 573a 894a 303f
000003e0: 41d1 233c a3ad 85be c55e d0be 0220 91be
000003f0: 96b1 373e d28a 60be abe6 03bf cb6d 923e

rnn.weight_hh_l0 f4 [32, 32]
0.0499722 0.057566177 -0.09022518 -0.15005104 -0.23271625 -0.043948583 0.121359035 -0.12917542
0.099746116 0.23033723 -0.17696385 -0.11440588 0.164484 -0.24623355 -0.10575855 -0.024209376
0.113667704 -0.20279232 0.20715646 -0.26101658 -0.18102743 0.51101357 0.23511685 0.28152353
-0.041509084 0.30761418 0.038820364 0.31985897 -0.19117245 -0.1926316 0.22107702 0.028576542
-0.05072783 -0.31616566 0.026415559 0.3280113 0.14363836 0.29609874 0.04403926 -0.02244944
0.2719462 0.026258528 -0.21987295 0.26830256 0.04435038 0.5950494 -0.20207758 0.019168565
0.20162857 0.29609826 -0.33314005 -0.10883733 -0.4809031 0.2853727 -0.13549355 0.24641177
-0.04009461 -0.20160775 -0.12805384 -0.23361823 0.15518929 -0.34743446 0.43137422 -0.33576107
0.11886584 -0.07843693 -0.07432977 0.09933077 0.09893682 0.2451159 0.27234837 0.02923194
0.10398994 0.27950463 -0.43994048 -0.2054796 -0.054980222 0.019144777 -0.027492184 -0.30564636
-0.25006628 -0.36122534 0.33726147 0.070984565 0.2584835 0.033849128 -0.38916537 -0.10330999
-0.13097575 0.0046395035 -0.5306547 0.10286226 -0.34222862 0.14149597 -0.20732795 -0.11613935
0.026138967 0.27740467 -0.05737666 -0.20191805 -0.043374788 0.19933034 0.13384072 0.2798198
-0.21513556 0.2054634 0.14354125 0.10456576 0.04765972 -0.1317791 -0.21077716 -0.018825244
0.3101056 -0.19201285 -0.024398794 0.15645665 -0.34465 0.19155155 0.43800876 -0.12797096
-0.039279316 0.14937465 0.1322919 -0.05311708 0.2339366 -0.27828774 0.057019725 -0.15333776
0.63281566 0.37933153 -0.12550922 -0.169042 0.6253017 0.15666038 -0.61014 -0.18352063
0.019395621 0.14660485 -0.10151404 -0.06281109 0.1121487 0.92302155 0.37336826 0.754627
0.08011602 0.53017026 -0.47423065 -0.23909977 0.4025101 -0.42525545 0.44408533 -0.17864448
-0.6708355 0.64497817 -0.18183325 -0.08133707 -0.4110143 0.034221634 0.3319182 0.103475675
0.16069447 0.114335604 0.01050913 0.11274297 0.21767537 -0.0720916 -0.05882035 0.09577267
-0.34391162 0.1328545 0.04035223 0.114814654 -0.2098157 -0.05678607 0.22635517 0.15549399
0.16190033 0.12012266 -0.016186126 -0.18902154 0.27712002 0.20840111 0.344884 -0.012479739
0.06408303 0.11260904 -0.12840226 -0.043402802 -0.1897454 0.12266144 -0.13840075 0.093067236
-0.14640728 0.36542225 -0.019709807 0.19078852 -0.29889816 0.22778687 -0.007244324 -0.20935063
0.28406733 -0.049552932 0.026068177 0.14958838 -0.09100118 -0.6456732 -0.2559387 -0.114482425
-0.29042172 0.32322693 0.18001293 0.024849048 -0.10223025 -0.27840114 -0.23903516 0.1613493
0.22631237 -0.28859395 0.05068191 0.40601733 -0.14428115 0.016054286 -0.2883372 0.20279872
-0.14731704 0.05944064 0.013409851 -0.0361224 -0.62311316 -0.19512707 0.21622828 0.31277806
-0.41200265 -0.16995606 -0.16263409 -0.19123231 -0.12946114 -1.080712 -0.56025976 -0.41832325
-0.6992389 -0.1789502 0.64645505 0.41434926 -0.18368165 -0.03201098 0.17668314 0.28171906
0.3582935 -0.17315665 0.4676185 0.16509536 -0.005304065 0.011658148 -0.04503096 0.03863847
00000000: a6af 4c3d 83ca 6b3d fbc7 b8bd fba6 19be
00000010: 2b4d 6ebe 6e03 34bd 168b f83d 9046 04be
00000020: b147 cc3d 86dd 6b3e 0336 35be a14d eabd
00000030: 7e6e 283e a624 7cbe f097 d8bd be52 c6bc
00000040: 9dca e83d caa8 4fbe d320 543e f7a3 85be
00000050: 415f 39be c9d1 023f 79c2 703e da23 903e
00000060: 6e05 2abd 9b7f 9d3e 1a02 1f3d 8ec4 a33e
00000070: b6c2 43be 3841 45be 0462 623e 5a19 ea3c
00000080: fcc7 4fbd 77e0 a1be 7165 d83c 19f1 a73e
00000090: ef15 133e 419a 973e 8362 343d e3e7 b7bc
000000a0: 883c 8b3e 201c d73c 6026 61be f45e 893e
000000b0: bea8 353d 2855 183f 6ded 4ebe 6507 9d3c
000000c0: b877 4e3e 319a 973e 5591 aabe 1be6 debd
000000d0: ee38 f6be 5f1c 923e d2be 0abe 5e53 7c3e
000000e0: 3f3a 24bd 4372 4ebe 8c20 03be 9e39 6fbe
000000f0: f1e9 1e3e eee2 b1be 15dd dc3e e0e8 abbe
00000100: ef6f f33d 8ba3 a0bd 353a 98bd ee6d cb3d
00000110: 639f ca3d aaff 7a3e 3f71 8b3e d277 ef3c
00000120: adf8 d43d 3b1b 8f3e e13f e1be 3f69 52be
00000130: f132 61bd 82d5 9c3c 4a37 e1bc ae7d 9cbe
00000140: b008 80be 87f2 b8be 89ad ac3e 5b60 913d
00000150: f357 843e 62a5 0a3d af40 c7be 3094 d3bd
00000160: 821e 06be fa06 983b fdd8 07bf 73a9 d23d
00000170: 9738 afbe 52e4 103e c74d 54be 78da edbd
00000180: 6321 d63c fc07 8e3e ca03 6bbd 9bc3 4ebe
00000190: c3a9 31bd 411d 4c3e 8b0d 093e 8a44 8f3e
000001a0: 7f4c 5cbe ff64 523e 7afc 123e 9326 d63d
000001b0: d736 433d 1af1 06be f8d5 57be 6637 9abc
000001c0: 29c6 9e3e 049f 44be fbdf c7bc 2c36 203e
000001d0: f775 b0be 1726 443e af42 e03e d20a 03be
000001e0: 59e3 20bd abf5 183e 8777 073e 4c91 59bd
000001f0: 138d 6f3e bb7b 8ebe 848d 693d 9304 1dbe
00000200: 3500 223f be37 c23e 7d85 00be 5919 2dbe
00000210: c613 203f 946b 203e 2332 1cbf d5ec 3bbe
00000220: 91e3 9e3c 951f 163e 98e6 cfbd 1aa3 80bd
00000230: 38ae e53d 244b 6c3f 202a bf3e 3c2f 413f
00000240: de13 a43d 3db9 073f 5cce f2be 92d6 74be
00000250: ce15 ce3e 15bb d9be 275f e33e 94ee 36be
00000260: e0bb 2bbf 4a1d 253f 7f32 3abe 0d94 a6bd
00000270: 7770 d2be fc2b 0c3d 2ff1 a93e 0eeb d33d
00000280: 178d 243e c928 ea3d 7c2e 2c3c c9e5 e63d
00000290: 4be6 5e3e c3a4 93bd 9bed 70bd 7624 c43d
000002a0: 2f15 b0be 030b 083e 6148 253d f223 eb3d
000002b0: edd9 56be 8398 68bd a6c9 673e d139 1f3e
000002c0: 33c9 253e df02 f63d c498 84bc dd8e 41be
000002d0: ade2 8d3e 1a67 553e a394 b03e d277 4cbc
000002e0: f73d 833d 929f e63d e27b 03be 23c7 31bd
000002f0: 9e4c 42be ec35 fb3d edb8 0dbe 099a be3d
00000300: caeb 15be a018 bb3e 7676 a1bc 115e 433e
00000310: 2e09 99be f640 693e cb61 edbb 0360 56be
00000320: 4671 913e 04f8 4abd ee8c d53c b22d 193e
00000330: d45e babd d74a 25bf 660a 83be c375 eabd
00000340: 28b2 94be 007e a53e 4f55 383e 3b90 cb3c
00000350: 185e d1bd 988a 8ebe a2c5 74be c038 253e
00000360: 6ebe 673e 96c2 93be d697 4f3d 81e1 cf3e
00000370: 70be 13be 4784 833c efa0 93be 78aa 4f3e
00000380: 47da 16be 0778 733d feb4 5b3c 15f5 13bd
00000390: 5884 1fbf 64cf 47be f26a 5d3e 7224 a03e
000003a0: 03f2 d2be f608 2ebe 8d89 26be 67d2 43be
000003b0: 7691 04be c554 8abf 2f6d 0fbf 772e d6be
000003c0: 5201 33bf b93e 37be 147e 253f 9625 d43e
000003d0: 0b17 3cbe f21d 03bd 6dec 343e 7b3d 903e
000003e0: 3f72 b73e fa4f 31be b16b ef3e c20e 293e
000003f0: b9cd adbb d101 3f3c 6272 38bd 5f43 1e3d

rnn.bias_ih_l0 f4 [32]
-0.012705496 0.031660147 -0.001324939 -0.09533841 0.031757858 -0.0924752 -0.08919471 0.0058525503
-0.030726572 0.18650115 -0.0947059 -0.1509771 -0.02640393 0.10904249 0.018970767 -0.066261426
-0.07950054 0.07049824 0.006440852 -0.009941598 0.13745458 0.13436048 -0.007147865 -0.09843483
-0.1424788 0.111994766 0.032461815 -0.07582046 -0.11380295 0.027432052 0.07683752 0.12118033
00000000: b62a 50bc 12ae 013d 93a9 adba c940 c3bd
00000010: 8714 023d a363 bdbd b7ab b6bd c0c6 bf3b
00000020: 4bb6 fbbc 28fa 3e3e 2bf5 c1bd be99 1abe
00000030: 0e4d d8bc ab51 df3d 9568 9b3c 12b4 87bd
00000040: 2ed1 a2bd 6261 903d c80d d33b 16e2 22bc
00000050: e5c0 0c3e cb95 093e a338 eabb 3398 c9bd
00000060: f6e5 11be 835d e53d aef6 043d c247 9bbd
00000070: 8511 e9bd 2fb9 e03c fd5c 9d3d 652d f83d

rnn.bias_hh_l0 f4 [32]
-0.012705518 0.031660162 -0.0013249309 -0.0953384 0.03175786 -0.09247518 -0.0891947 0.005852551
-0.030726574 0.18650116 -0.09470589 -0.1509771 -0.026403926 0.10904248 0.018970765 -0.066261396
-0.07950055 0.07049825 0.0064408514 -0.009941594 0.13745463 0.13436049 -0.0071478626 -0.09843485
-0.1424788 0.11199477 0.032461815 -0.07582046 -0.11380295 0.027432049 0.07683755 0.12118032
00000000: ce2a 50bc 16ae 013d 4ea9 adba c740 c3bd
00000010: 8814 023d a163 bdbd b6ab b6bd c2c6 bf3b
00000020: 4cb6 fbbc 29fa 3e3e 29f5 c1bd be99 1abe
00000030: 0c4d d8bc aa51 df3d 9468 9b3c 0eb4 87bd
00000040: 2fd1 a2bd 6361 903d c70d d33b 11e2 22bc
00000050: e8c0 0c3e cc95 093e 9e38 eabb 3698 c9bd
00000060: f6e5 11be 845d e53d aef6 043d c247 9bbd
00000070: 8511 e9bd 2db9 e03c 015d 9d3d 632d f83d

fc_out.weight f4 [147, 32]
-0.38762334 0.19855037 0.47490183 -0.48144412 0.39311013 -0.44178498 -0.11292473 -0.40243062
0.16030079 -0.4897498 -0.35016054 -0.53655195 -0.3553707 0.32949203 -0.5156275 -0.40635416
-0.19449884 0.27914444 -0.3232553 -0.37891775 0.3976349 0.48460466 -0.50874996 -0.38723254
-0.3232888 -0.517488 -0.45608023 -0.4363738 -0.41881925 -0.37044552 0.31183028 -0.38667417
0.5373587 -0.11473037 0.38524002 0.57220066 -0.1151518 -0.17099732 0.9465557 0.42714825
-0.3509714 0.7282952 0.41475332 -0.1854377 0.5646848 0.18625274 0.27301416 0.48163536
0.723452 -0.7447055 -0.23680906 -0.34257922 -0.6569628 -0.6030573 0.4769449 0.13619399
0.58142495 -0.4990756 -0.3370954 0.73373574 -0.36586842 0.49855617 0.17246723 -0.0215622
0.49972874 -0.7526156 0.39367908 -0.42795143 -0.0053192386 0.3072119 1.0981188 0.7254615
-0.28291482 -0.9846373 0.3447808 -0.35348397 -0.0755893 -0.03149564 0.07445498 0.36464727
0.682881 0.20750524 0.07301996 0.073896766 -0.3262039 0.6073719 0.47047812 0.34486723
-0.12804344 -0.3011461 0.62533706 -0.1191643 -0.089288734 0.63961685 -0.76679957 0.8753974
-0.5652811 0.0057176407 0.73435843 -0.43525732 -0.8732059 0.11712261 1.0315866 0.42916608
-0.90167004 0.8083239 -0.5037244 0.3945245 0.5395657 -0.68704903 0.4390156 0.4599188
0.6469257 -0.4264251 0.73717666 0.39922237 0.3502455 -0.54064435 0.07065623 0.9713977
0.24789652 0.3084645 -0.26153767 0.45502272 0.20935827 -0.49252403 0.24945791 -0.5692265
0.6720894 -0.54615724 0.34814584 0.7163566 -0.41207692 0.3915022 -0.15968528 0.44143012
-0.030037712 -0.27950573 0.33106652 -0.45284355 -0.5849724 -1.0091231 0.38272345 0.6186049
0.589656 -0.5617935 -0.051254604 -0.61546403 -0.62560517 -0.6377572 -0.26456484 0.345662
0.81802726 0.70913315 0.6492727 -0.26411492 -0.10415286 -0.6828138 0.22910509 0.58486664
0.54213405 0.40565658 0.12436174 0.76207435 -0.10091446 0.060076844 -0.23596159 0.5862539
-0.8372478 -0.91531134 0.4060427 -0.6695646 0.72665995 -1.0272788 -0.7625216 0.6443265
0.6472971 -0.10567493 0.36187083 -0.40999332 -0.6719402 0.10313681 0.31714842 0.6913265
0.26903543 -0.7213143 0.002684398 0.3910013 -0.24014227 0.6941906 -0.08939229 -0.6053911
0.21117498 -0.65536356 0.3043846 -0.28061846 -0.4622849 0.4777804 0.40892908 0.5242873
-0.7956082 0.7638094 -0.3231767 -0.262758 -0.29050538 0.14634115 -0.56935066 0.4447313
0.5966989 0.0150843505 -0.26335534 -0.21942474 -0.36379018 0.6436117 -0.44560578 -0.04488256
0.098123595 0.46124178 0.6605682 0.23192108 0.5761447 0.5341273 -0.33188212 0.84016573
-0.30311498 0.46988052 -0.7002595 -0.38479403 0.3414597 -0.3537379 0.64514804 -0.30234113
0.21013756 -0.73301506 -0.06381339 0.5436197 0.39324102 0.28129095 0.5667467 -0.82217664
-0.53610575 -0.66486204 0.66540474 -0.77411884 0.6058998 0.68407667 0.4887152 -0.4528511
-0.1109931 0.31059065 0.8712771 -0.19976625 0.67270386 0.5357992 -0.23845662 -0.24792697
00000000: 9176 c6be ca50 4b3e 5526 f33e d87f f6be
00000010: bb45 c93e a431 e2be 1545 e7bd 630b cebe
00000020: e425 243e 7cc0 fabe 3e48 b3be 785b 09bf
00000030: 26f3 b5be 2eb3 a83e 2a00 04bf a70d d0be
00000040: b42a 47be 05ec 8e3e b881 a5be 8201 c2be
00000050: cd96 cb3e 1a1e f83e 703d 02bf 5843 c6be
00000060: 1c86 a5be 187a 04bf 5983 e9be 636c dfbe
00000070: 7a6f d6be 09ab bdbe 38a8 9f3e 28fa c5be
00000080: 5790 093f c2f7 eabd 2e3e c53e be7b 123f
00000090: b5d4 ebbd ec19 2fbe 7951 723f 2db3 da3e
000000a0: 86b2 b3be 8e71 3a3f 8c5a d43e 61e3 3dbe
000000b0: 2f8f 103f 0ab9 3e3e 83c8 8b3e e998 f63e
000000c0: 2634 393f 05a5 3ebf 137e 72be 8b66 afbe
000000d0: b72e 28bf f761 1abf 1f32 f43e 7076 0b3e
000000e0: 44d8 143f d686 ffbe c597 acbe 1bd6 3b3f
000000f0: 1b53 bbbe c142 ff3e 409b 303e 36a3 b0bc
00000100: 72dc ff3e 6aab 40bf 4e90 c93e 731c dbbe
00000110: 024d aebb e14a 9d3e 288f 8c3f d8b7 393f
00000120: 36da 90be 3111 7cbf 1c87 b03e dafb b4be
00000130: 90ce 9abd 9201 01bd da7b 983d 0cb3 ba3e
00000140: 4ad1 2e3f 417c 543e 7d8b 953d 3057 973d
00000150: 3304 a7be ba7c 1b3f 82e2 f03e 7092 b03e
00000160: d21d 03be d22f 9abe 1716 203f 6a0c f4bd
00000170: 03dd b6bd eebd 233f fa4c 44bf 0b1a 603f
00000180: 43b6 10bf 0c5b bb3b eafe 3b3f 0cda debe
00000190: 6c8a 5fbf fbdd ef3d 080b 843f a8bb db3e
000001a0: d9d3 66bf 51ee 4e3f 15f4 00bf 1eff c93e
000001b0: fa20 0a3f 72e2 2fbf a7c6 e03e 7a7a eb3e
000001c0: ec9c 253f 6454 dabe 9cb7 3c3f e066 cc3e
000001d0: 6153 b33e ab67 0abf 37b4 903d 85ad 783f
000001e0: 96d8 7d3e 0fef 9d3e 44e8 85be bdf8 e83e
000001f0: 0462 563e 1c2c fcbe e571 7f3e d4b8 11bf
00000200: 0d0e 2c3f f6d0 0bbf 2c40 b23e 2563 373f
00000210: bffb d2be fa72 c83e 8a84 23be 2103 e23e
00000220: a611 f6bc 601b 8fbe 8d81 a93e 1cdb e7be
00000230: c0c0 15bf f22a 81bf 54f4 c33e e45c 1e3f
00000240: b2f3 163f b3d1 0fbf 59f0 51bd 0d8f 1dbf
00000250: a927 20bf 0e44 23bf 0b75 87be 9cfa b03e
00000260: 3c6a 513f c089 353f bc36 263f 123a 87be
00000270: 184e d5bd e3cc 2ebf 869a 6a3e d2b9 153f
00000280: 4cc9 0a3f 38b2 cf3e 5eb1 fe3d 4e17 433f
00000290: 3eac cebd 2313 763d ea9f 71be bc14 163f
000002a0: df55 56bf d851 6abf d4e4 cf3e 9668 2bbf
000002b0: 6306 3a3f df7d 83bf 9e34 43bf 95f2 243f
000002c0: 43b5 253f 196c d8bd 2247 b93e a5ea d1be
000002d0: 4604 2cbf 6439 d33d 4761 a23e c6fa 303f
000002e0: 03bf 893e 0ea8 38bf baec 2f3b 5331 c83e
000002f0: dbe7 75be 7ab6 313f 4e13 b7bd e9fa 1abf
00000300: 413e 583e e8c5 27bf 4cd8 9b3e 39ad 8fbe
00000310: 9bb0 ecbe a29f f43e 275f d13e b137 063f
00000320: fbac 4bbf 0389 433f 6b77 a5be 3788 86be
00000330: 1fbd 94be 74da 153e f7c0 11bf d2b3 e33e
00000340: 42c1 183f 5a24 773c 83d6 86be e1b0 60be
00000350: b542 babe bdc3 243f 7126 e4be c6d6 37bd
00000360: 06f5 c83d e227 ec3e ff1a 293f b87c 6d3e
00000370: 387e 133f 91bc 083f 74ec a9be 1a15 573f
00000380: e331 9bbe 2e94 f03e 3544 33bf b903 c5be
00000390: ced3 ae3e 221d b5be 6c28 253f 75cc 9abe
000003a0: 4d2e 573e e0a6 3bbf 98b0 82bd a92a 0b3f
000003b0: e356 c93e 5e05 903e 5016 113f 2b7a 52bf
000003c0: 3a3e 09bf 6634 2abf f757 2a3f a72c 46bf
000003d0: 401c 1b3f a61f 2f3f e138 fa3e 19dc e7be
000003e0: 5a50 e3bd bd05 9f3e 040c 5f3f 868f 4cbe
000003f0: 5236 2c3f 232a 093f f92d 74be 91e0 7dbe

fc_out.bias f4 [147]
0.2240941 -0.13106202 -0.18391457 -0.27616075 -0.19572695 -0.25039178 -0.10673947 0.30223668
-0.26850116 -0.2493639 -0.27338898 -0.12036465 -0.23407795 -0.18974221 -0.1365283 -0.20747942
-0.20292437 -0.27105802 -0.2567166 -0.24610038 -0.12324378 -0.22339138 -0.27158865 -0.20721935
-0.21252415 -0.27276242 -0.20893496 -0.1461292 -0.26489314 -0.23462114 0.3606705 0.05451467
-0.3674701 -0.19427785 -0.18701951 -0.22040176 -0.27553844 -0.13673264 -0.19460948 0.111899324
0.19792643 -0.21013325 -0.32011583 -0.24772951 -0.2798624 -0.27004084 -0.25145337 -0.176669
-0.17743874 0.15232983 -0.31369334 -0.26909855 0.39710736 -0.24829796 -0.15606765 -0.19991562
0.20413409 -0.18122771 -0.247163 -0.16631295 -0.22288743 -0.22625765 -0.22619264 -0.18897791
-0.33522275 0.25777462 -0.1855691 -0.16209981 -0.094038606 -0.19621268 0.10909314 -0.10277527
-0.2906477 -0.17583044 -0.19149214 -0.09421449 -0.13414572 0.24227187 -0.26101452 -0.17817907
-0.20391949 -0.14327894 -0.21117808 -0.21819507 -0.19428596 -0.20542918 0.16815339 -0.17167494
-0.34756008 0.27973473 -0.10961922 -0.23523863 -0.17350604 0.06737011 0.372312 -0.22622356
0.07729211 -0.22941786 -0.20209989 -0.2658758 -0.31771868 -0.2836491 -0.28436515 -0.23266299
-0.20163405 -0.33140412 -0.24192965 -0.19040404 -0.15821429 -0.2762787 -0.22439454 -0.17433414
-0.15109187 -0.16651703 0.3262082 -0.33860168 -0.2561182 -0.2130864 -0.24149247 0.21211518
-0.18290015 -0.10760207 -0.1693418 -0.16291985 -0.15111405 -0.19425835 -0.24767032 -0.23560594
-0.30365726 0.27354884 -0.21134007 -0.17269802 -0.15045947 -0.2654999 -0.26627702 -0.11217378
-0.16252542 -0.18455705 0.26283252 -0.29837337 -0.2896848 -0.27112487 -0.25727835 0.32688057
-0.1247959 -0.25505283 0.24563166
00000000: ec78 653e 1f35 06be 1a54 3cbe f164 8dbe
00000010: a56c 48be 5a33 80be 399a dabd c4be 9a3e
00000020: fc78 89be 4059 7fbe a4f9 8bbe be81 f6bd
00000030: 21b2 6fbe c84b 42be 13ce 0bbe 7c75 54be
00000040: 68cb 4fbe 1ec8 8abe 5c70 83be bd01 7cbe
00000050: 3c67 fcbd b6c0 64be ab0d 8bbe 4f31 54be
00000060: ee9f 59be 84a7 8bbe 0cf3 55be e5a2 15be
00000070: 13a0 87be 8640 70be cea9 b83e c64a 5f3d
00000080: 0a25 bcbe c6f0 46be 0b82 3fbe 00b1 61be
00000090: 6013 8dbe a403 0cbe b547 47be 792b e53d
000000a0: 3aad 4a3e 2c2d 57be 39e6 a3be ceac 7dbe
000000b0: 204a 8fbe cb42 8abe 7fbe 80be b8e8 34be
000000c0: 80b2 35be 5afc 1b3e 6a9c a0be 49c7 89be
000000d0: a851 cb3e d241 7ebe 33d0 1fbe aeb6 4cbe
000000e0: 8708 513e c293 39be 4c18 7dbe f14d 2abe
000000f0: 9a3c 64be 16b0 67be 0b9f 67be 6d83 41be
00000100: 51a2 abbe 09fb 833e d305 3ebe 7efd 25be
00000110: 5097 c0bd faeb 48be 396c df3d d77b d2bd
00000120: c6cf 94be e50c 34be 8416 44be 87f3 c0bd
00000130: 7f5d 09be 1e16 783e b2a3 85be 9374 36be
00000140: 45d0 50be b7b7 12be 113f 58be 876e 5fbe
00000150: e6f2 46be 075c 52be 6730 2c3e 8ecb 2fbe
00000160: 65f3 b1be 6439 8f3e 0b80 e0bd 65e2 70be
00000170: 91ab 31be 57f9 893d ae9f be3e 26a7 67be
00000180: 534b 9e3d 84ec 6abe 46f3 4ebe df20 88be
00000190: 06ac a2be 743a 91be 4f98 91be 353f 6ebe
000001a0: 2879 4ebe cdad a9be 68bc 77be 47f9 42be
000001b0: ed02 22be 6774 8dbe afc7 65be a684 32be
000001c0: d4b7 1abe 7183 2abe c304 a73e 335d adbe
000001d0: ed21 83be 5233 5abe cd49 77be b934 593e
000001e0: 2d4a 3bbe 795e dcbd f067 2dbe 76d4 26be
000001f0: a4bd 1abe a9eb 46be 4a9d 7dbe af42 71be
00000200: f778 9bbe 980e 8c3e 8869 58be c0d7 30be
00000210: 0c12 1abe 9aef 87be 7655 88be 5ebb e5bd
00000220: 106d 26be 86fc 3cbe fc91 863e 65c4 98be
00000230: 9151 94be e1d0 8abe fdb9 83be e45c a73e
00000240: fe94 ffbd 4996 82be de86 7b3e
