outputs/str2num/model.pt (torch, 3539 bytes, 7 tensors)

embedding.weight f4 [27, 4]
-0.92567205 -0.7035667 0.9314039 0.31256193 0.26477274 0.3870915 -0.5236881 -0.5567477
1.165333 0.1905868 0.63916904 0.969451 0.38054553 -0.3129223 0.037453994 1.0238981
1.8840189 0.2022276 -1.2006454 -0.7475433 0.09394978 -1.872533 0.09841177 1.065058
-0.39425448 0.46038198 1.1938612 0.5127984 1.1972915 -1.867235 0.62507194 1.0328114
0.7401418 -0.22262587 -0.9314293 -0.31784388 -0.21113282 1.2663834 0.59036016 0.08715162
-1.0684433 1.3759291 -1.6770649 -1.1468956 -0.69112706 -0.084674254 1.5026983 -1.8777933
-0.35317492 0.41695872 0.5656533 -0.2090034 -1.4702756 -0.1883704 0.6811483 -1.5056653
-0.45163193 0.052658573 -0.84322715 1.2729756 1.1979163 1.0266838 -0.22225592 0.8146456
0.87298715 1.5198543 -0.2527424 -0.05906049 -0.38754815 0.87988454 -0.46855128 0.6451364
0.35494214 1.2865717 0.6864508 0.973508 0.6599583 -0.4147722 1.1822883 0.14136954
-0.5778312 0.17283396 1.0861756 1.6230503 0.60234004 0.17923196 -0.67681366 0.5771611
0.5992747 0.8583203 0.74630964 -0.91282386 -0.51017123 -0.29140767 -0.42856017 0.24264799
-0.057546005 0.7885424 0.14633404 1.4103941 0.75645787 0.5508206 0.49373642 0.072282106
0.062458858 -0.18163681 -1.5872943 -0.06533382
00000000: d8f8 6cbf f21c 34bf 7c70 6e3f 1e08 a03e
00000010: 4b90 873e db30 c63e 6c10 06bf 0487 0ebf
00000020: a229 953f 3029 433e 95a0 233f f12d 783f
00000030: ddd6 c23e 5a37 a0be 5c69 193d 180f 833f
00000040: 8827 f13f c114 4f3e c0ae 99bf ff5e 3fbf
00000050: be68 c03d 29af efbf 1c8c c93d d253 883f
00000060: b9db c9be 30b7 eb3e 72d0 983f c246 033f
00000070: d940 993f 8e01 efbf b704 203f 2a33 843f
00000080: ef79 3d3f 09f8 63be 2772 6ebf 6fbc a2be
00000090: 3433 58be da18 a23f d821 173f 8c7c b23d
000000a0: c0c2 88bf 721e b03f 10aa d6bf 7acd 92bf
000000b0: b4ed 30bf b269 adbd 6b58 c03f 885b f0bf
000000c0: 58d3 b4be 9d7b d53e a8ce 103f fd04 56be
000000d0: fe31 bcbf 2ce4 40be bc5f 2e3f a4b9 c0bf
000000e0: 4d3c e7be 84b0 573d bcdd 57bf ddf0 a23f
000000f0: 5255 993f 606a 833f 0e97 63be 9d8c 503f
00000100: 167c 5f3f 968a c23f 7467 81be 6ae9 71bd
00000110: b66c c6be 1d40 613f f4e5 efbe a927 253f
00000120: faba b53e 62ae a43f 3dbb 2f3f d237 793f
00000130: 07f3 283f 065d d4be 3955 973f 2dc3 103e
00000140: bfec 13bf 63fb 303e cd07 8b3f 1dc0 cf3f
00000150: f532 1a3f 9588 373e a943 2dbf d4c0 133f
00000160: 116a 193f e1ba 5b3f 260e 3f3f d3ae 69bf
00000170: 959a 02bf 6333 95be 3d6c dbbe b778 783e
00000180: 5cb5 6bbd eadd 493f 97d8 153e cb87 b43f
00000190: 39a7 413f 9402 0d3f 05cb fc3e a408 943d
000001a0: dcd4 7f3d 00ff 39be 762c cbbf bdcd 85bd

rnn.weight_ih_l0 f4 [12, 4]
-1.0663188 0.035594072 0.8723418 0.56542706 -0.3479884 -0.124549575 0.1497219 -0.44191936
-0.013132997 -0.0022499252 -0.04194158 -0.06420982 -0.6745206 -0.0656497 0.43675944 0.016673988
-1.3979391 -1.0601065 1.2599275 -1.8916856 -0.0788153 -0.33331165 0.27297688 -0.090368845
0.20303407 -2.5109174 0.3680559 0.55538064 -0.49744514 0.32119983 -1.7496893 -0.90673417
2.126122 -1.2163222 -1.856211 2.0337067 -2.7122645 -1.529949 -1.6506324 0.30103803
-0.29376653 -1.2049309 1.9247029 3.1045742 0.48906466 -2.630144 1.4278015 -1.3865234
00000000: 227d 88bf 17cb 113d cb51 5f3f d4bf 103f
00000010: 892b b2be d913 ffbd b350 193e 4143 e2be
00000020: c82b 57bc 7b73 13bb efca 2bbd 7080 83bd
00000030: 62ad 2cbf 5a73 86bd ef9e df3e e397 883c
00000040: abef b2bf 92b1 87bf 4e45 a13f c122 f2bf
00000050: ea69 a1bd d3a7 aabe a0c3 8b3e 4d13 b9bd
00000060: 2ae8 4f3e dfb2 20c0 d371 bc3e 6d2d 0e3f
00000070: 21b1 febe 4e74 a43e d2f5 dfbf bb1f 68bf
00000080: 6212 0840 72b0 9bbf 5298 edbf 4028 0240
00000090: be95 2dc0 5ed5 c3bf ec47 d3bf a821 9a3e
000000a0: 9168 96be 2d3b 9abf aa5c f63f 58b1 4640
000000b0: af66 fa3e 4754 28c0 33c2 b63f 9979 b1bf

rnn.weight_hh_l0 f4 [12, 4]
-0.1776855 -0.47962332 -0.12896004 0.1417677 0.47768298 0.0037935479 0.1163667 0.08865824
0.010142718 -0.0016770192 0.0075924597 0.00051757897 -0.16863702 -0.27794057 0.22638664 0.22461036
-1.8656037 -0.01822757 0.045419876 0.20548572 -0.09059115 0.048094325 -0.03570592 0.1788671
0.053168576 0.06318899 1.0633625 0.08315771 -0.13043758 0.0034877742 0.035160147 -0.7458161
-0.21041554 -0.40709952 -0.1183428 0.13529584 -0.09271878 0.00067958335 -0.003294528 -0.018316254
-0.00019125165 -0.002554481 -0.0116056055 -0.0010225049 -0.034265485 0.28402248 -0.13135587 -0.024895031
00000000: 30f3 35be 3091 f5be 1a0e 04be 8d2b 113e
00000010: dd92 f43e 2c9d 783b aa51 ee3d 7492 b53d
00000020: a52d 263c 6dcf dbba 2bca f83b 23ae 073a
00000030: 2faf 2cbe 3a4e 8ebe e6d1 673e 4200 663e
00000040: 1acc eebf fc51 95bc 310a 3a3d d96a 523e
00000050: da87 b9bd 8efe 443d 5f40 12bd f028 373e
00000060: 4bc7 593d 3b69 813d 431c 883f 974e aa3d
00000070: 6e91 05be 2493 643b 1604 103d ceed 3ebf
00000080: 2c77 57be 596f d0be b65d f2bd fe8a 0a3e
00000090: 58e3 bdbd 1126 323a 02e9 57bb f80b 96bc
000000a0: b98a 48b9 1469 27bb 7025 3ebc 9205 86ba
000000b0: f759 0cbd 656b 913e 2782 06be aaf0 cbbc

rnn.bias_ih_l0 f4 [12]
-0.5956412 -0.02489702 -0.005920083 -1.5191323 -2.4454522 -2.7709672 -2.5555217 -2.745803
-0.00010255854 0.5337351 -0.33715954 0.47030395
00000000: f17b 18bf d6f4 cbbc 41fd c1bb ed72 c2bf
00000010: 4a82 1cc0 8757 31c0 ab8d 23c0 3dbb 2fc0
00000020: b214 d7b8 dda2 083f 2da0 acbe aecb f03e

rnn.bias_hh_l0 f4 [12]
-0.59564126 -0.024897028 -0.005920087 -1.5191321 -2.4454525 -2.7709672 -2.5555217 -2.745803
-1.1699569 0.33730918 -0.06860855 0.6186284
00000000: f27b 18bf daf4 cbbc 4afd c1bb ec72 c2bf
00000010: 4b82 1cc0 8757 31c0 ab8d 23c0 3dbb 2fc0
00000020: 26c1 95bf cab3 ac3e a482 8cbd 6e5e 1e3f

fc_out.weight f4 [27, 4]
-4.391833 3.9730158 3.9718604 4.334528 6.3170877 2.2114398 -7.330694 2.6352334
0.4127735 -2.3649879 -5.715614 8.116544 5.378482 -7.7490783 5.759221 0.41238156
-4.548979 2.9519236 5.1356535 -5.962467 7.7873373 -7.326811 -6.4167304 1.3778924
5.6321554 -8.444112 0.48400995 -6.4366 3.4925392 -2.0415337 7.276673 -7.55096
-7.414852 -4.21157 4.9637017 -0.2854066 -2.2621043 7.3481116 -6.4476495 5.001597
-8.785142 7.4011545 -5.4237432 -4.552392 -7.871616 -6.0106087 -2.756987 -6.4257665
-1.49813 -5.970464 3.9939127 7.7893753 6.6474032 8.640729 -6.1896057 -4.345761
-0.31171608 -8.057426 -1.0045537 0.101687446 -6.959692 -8.870465 -5.0267487 3.9548314
-2.8824818 -5.8950877 4.8782206 -7.5025034 5.7701592 1.7687609 5.79574 0.6378814
1.85007 8.077989 -0.69931006 0.24273144 5.823659 6.142339 1.0589327 8.501803
-1.0244132 6.3707905 -1.4375508 -9.257098 6.200616 -3.1994495 0.49398562 8.650932
4.207332 7.069433 4.756936 -6.7767344 0.96477795 -6.952879 -7.027401 -7.753597
6.3183866 0.5198018 -2.2663765 -5.8041887 -1.9150813 0.30500078 -8.453245 -3.3695552
-8.617841 -0.09920272 -2.400866 0.5578888
00000000: e589 8cc0 e445 7e40 f632 7e40 74b4 8a40
00000010: 9525 ca40 3b88 0d40 0c95 eac0 aaa7 2840
00000020: 0c57 d33e f65b 17c0 4fe6 b6c0 5ddd 0141
00000030: 861c ac40 73f8 f7c0 8a4b b840 ad23 d33e
00000040: 3c91 91c0 51ec 3c40 4657 a440 88cc bec0
00000050: de31 f940 3c75 eac0 db55 cdc0 c75e b03f
00000060: 9e3a b440 151b 07c1 27d0 f73e a1f8 cdc0
00000070: c385 5f40 7da8 02c0 81da e840 77a1 f1c0
00000080: 7846 edc0 2ec5 86c0 a5d6 9e40 d020 92be
00000090: 51c6 10c0 bb23 eb40 2553 cec0 150d a040
000000a0: f18f 0cc1 42d6 ec40 4e8f adc0 32ad 91c0
000000b0: 47e4 fbc0 e856 c0c0 7a72 30c0 e19f cdc0
000000c0: b9c2 bfbf 0b0e bfc0 449c 7f40 9042 f940
000000d0: 87b7 d440 6d40 0a41 4011 c6c0 7910 8bc0
000000e0: 4099 9fbe 38eb 00c1 3795 80bf 8241 d03d
000000f0: ccb5 dec0 6ded 0dc1 20db a0c0 f51b 7d40
00000100: 957a 38c0 8fa4 bcc0 621a 9c40 8214 f0c0
00000110: 25a5 b840 c266 e23f b476 b940 324c 233f
00000120: 18cf ec3f 713f 0141 fc05 33bf 978e 783e
00000130: 6a5b ba40 0b8e c440 1b8b 873f 6307 0841
00000140: f91f 83bf 84dd cb40 aa01 b8bf 131d 14c1
00000150: 726b c640 c8c3 4cc0 afeb fc3e 386a 0a41
00000160: 77a2 8640 cc38 e240 d238 9840 02db d8c0
00000170: b0fb 763f fc7d dec0 78e0 e0c0 771d f8c0
00000180: 3930 ca40 bb11 053f 500c 11c0 eabb b9c0
00000190: 6221 f5bf 1029 9c3e 7e40 07c1 cba6 57c0
000001a0: ade2 09c1 cc2a cbbd caa7 19c0 cdd1 0e3f

fc_out.bias f4 [27]
1.7570125 0.76771796 1.1780363 -1.3780107 1.5250585 -2.0885196 -2.47172 -1.4696636
0.3124784 -1.0763971 -2.9286485 -1.1729853 -0.23112728 -3.9821768 4.151088 -3.31967
-0.8919732 1.3720278 3.0314019 -2.19009 0.25767687 0.44011483 -2.7510588 -2.4208481
1.6809694 2.636422 2.548513
00000000: c9e5 e03f 2a89 443f e5c9 963f a862 b0bf
00000010: 1e35 c33f 4eaa 05c0 a930 1ec0 f01d bcbf
00000020: 2bfd 9f3e 61c7 89bf fa6e 3bc0 6224 96bf
00000030: a1ac 6cbe fcdb 7ec0 b7d5 8440 7975 54c0
00000040: 5b58 64bf 9b9e af3f 7d02 4240 6f2a 0cc0
00000050: 39ee 833e bb56 e13e 5911 30c0 2def 1ac0
00000060: 012a d73f 23bb 2840 d61a 2340
