outputs/vowels_deletion/model.pt (torch, 2835 bytes, 7 tensors)

embedding.weight f4 [27, 2]
-1.5048002 -1.683133 1.285323 0.82109 0.18529359 -0.07574474 -0.35089496 0.5513405
0.7910613 1.3647525 0.33646935 -0.08673483 0.21999541 -0.2830176 -2.6103528 2.8878124
0.44136527 -0.12489816 -2.171029 2.299128 0.018656705 -0.20188914 0.24963425 -0.010688101
-1.7323496 -2.0559225 -2.5202875 -1.3350872 1.1174271 -2.9602656 0.8133584 -0.87460434
0.96499074 -1.0422988 0.85152465 -0.9249427 1.1623696 0.5787028 -0.38380435 0.7202707
0.7591037 -0.8163312 1.5512588 -1.4334627 0.35990706 -0.21609229 1.6418844 0.84071064
2.455892 -1.2081038 -0.44843203 0.47243237 0.8535379 -0.91596913
00000000: 4b9d c0bf e770 d7bf 7785 a43f f432 523f
00000010: 9abd 3d3e 0f20 9bbd 81a8 b3be a724 0d3f
00000020: fe82 4a3f 36b0 ae3f b645 ac3e 08a2 b1bd
00000030: 7a46 613e afe7 90be 0510 27c0 ebd1 3840
00000040: a1fa e13e 9bca ffbd 24f2 0ac0 ea24 1340
00000050: f2d5 983c 07bc 4ebe 1fa0 7f3e 251d 2fbc
00000060: a2bd ddbf 3c94 03c0 644c 21c0 23e4 aabf
00000070: da07 8f3f fe74 3dc0 4238 503f 12e6 5fbf
00000080: a209 773f 0c6a 85bf 85fd 593f 0bc9 6cbf
00000090: 87c8 943f de25 143f 0182 c4be a963 383f
000000a0: 9f54 423f 15fb 50bf a68f c63f b57b b7bf
000000b0: bd45 b83e 4c47 5dbe 4529 d23f d038 573f
000000c0: 562d 1d40 25a3 9abf e298 e5be a8e2 f13e
000000d0: 7681 5a3f f47c 6abf

rnn.weight_ih_l0 f4 [8, 2]
0.27383786 -0.14110415 2.10261 -2.31298 -2.1215913 -2.8434112 1.8333647 -2.663012
-2.5459106 -2.3987494 2.718021 -3.1214168 0.1918562 -0.20989494 0.25055218 -0.19386992
00000000: 7a34 8c3e 9b7d 10be 2a91 0640 dd07 14c0
00000010: 27c8 07c0 73fa 35c0 b2ab ea3f ca6e 2ac0
00000020: 33f0 22c0 1c85 19c0 0ef4 2d40 4bc5 47c0
00000030: f475 443e b3ee 56be 6048 803e d685 46be

rnn.weight_hh_l0 f4 [8, 2]
-0.41881758 0.09964366 0.009771011 -0.017875584 6.306574 -0.14468291 -0.7103464 5.497547
-0.007896409 0.0018642005 0.00027908763 -0.0038045424 -0.2381491 0.07492252 -0.42883584 -0.3089258
00000000: 426f d6be fa11 cc3d 9716 203c d16f 92bc
00000010: 74cf c940 c227 14be 43d9 35bf e8eb af40
00000020: f15f 01bc 3058 f43a 8252 9239 a155 79bb
00000030: 5cdd 73be fa70 993d 5f90 dbbe 862b 9ebe

rnn.bias_ih_l0 f4 [8]
3.6728768 4.3151426 -4.9802723 -5.210177 0.16772997 -0.6239628 3.985379 3.9806566
00000000: 6a10 6b40 a615 8a40 645e 9fc0 c5b9 a6c0
00000010: 68c1 2b3e 07bc 1fbf 7310 7f40 14c3 7e40

rnn.bias_hh_l0 f4 [8]
3.6728766 4.3151426 -4.9802723 -5.2101765 0.16772991 -0.6239629 3.985379 3.9806566
00000000: 6910 6b40 a615 8a40 645e 9fc0 c4b9 a6c0
00000010: 64c1 2b3e 08bc 1fbf 7310 7f40 14c3 7e40

fc_out.weight f4 [23, 2]
27.828886 -5.252839 -28.649048 -13.320774 1.730895 -14.087719 -4.9239182 -31.693493
-29.044964 -30.73246 -10.223065 -2.320403 11.270485 7.7153153 1.3564334 -0.49798927
-15.1675205 12.284285 10.645523 -7.217098 20.421566 -16.507744 -12.489858 -16.698772
25.059874 12.176461 33.28062 -28.264534 25.411358 30.244411 7.647987 25.280008
-28.826342 1.8863192 -23.389156 -31.62918 -9.6992035 30.532866 -2.055544 14.030981
-26.06672 18.97937 -23.842365 36.85779 10.0404415 -28.843412
00000000: 8fa1 de41 4217 a8c0 4031 e5c1 e421 55c1
00000010: f88d dd3f 4c67 61c1 bd90 9dc0 468c fdc1
00000020: 165c e8c1 14dc f5c1 ad91 23c1 7c81 14c0
00000030: e853 3441 dde3 f640 9c9f ad3f 73f8 febe
00000040: 2aae 72c1 6e8c 4441 1054 2a41 78f2 e6c0
00000050: 5e5f a341 dc0f 84c1 75d6 47c1 1697 85c1
00000060: 9f7a c841 c9d2 4241 5b1f 0542 c41d e2c1
00000070: 764a cb41 8ef4 f141 4fbc f440 753d ca41
00000080: 599c e6c1 e872 f13f fe1c bbc1 9008 fdc1
00000090: f02f 1bc1 4f43 f441 088e 03c0 e67e 6041
000000a0: a488 d0c1 c0d5 9741 2abd bec1 616e 1342
000000b0: a6a5 2041 4fbf e6c1

fc_out.bias f4 [23]
-1.2114447 -1.4590181 6.5889482 -3.372707 -10.208797 9.402424 8.1332245 9.805166
5.6114726 7.965286 0.3786845 4.7035565 -1.785641 -15.0254755 -13.323971 1.5353179
0.040760826 -7.7497 -1.8996646 8.379763 -3.2752485 -12.678866 -2.3810213
00000000: 9f10 9bbf 1bc1 babf aad8 d240 6eda 57c0
00000010: 3c57 23c1 5470 1641 b021 0241 f6e1 1c41
00000020: 2f91 b340 9fe3 fe40 efe2 c13e 8983 9640
00000030: e28f e4bf 5968 70c1 fc2e 55c1 4c85 c43f
00000040: d3f4 263d 8bfd f7c0 3628 f3bf 8213 0641
00000050: ac9d 51c0 a3dc 4ac1 a762 18c0
